checkpoint_doubleQ-1500.pth (torch_old, 28345 bytes, 6 tensors)

fc1.weight f4 [64, 37]
0.24143752 -0.33917066 -0.6152663 -0.21906294 -0.8596462 0.04107434 -0.039726466 0.16860794
-0.05739436 -0.39518812 -0.1748551 0.12335329 -0.068809286 -0.18875226 -0.2572696 0.15409185
-0.2908251 -0.23659214 -0.29204082 -0.52078927 0.08114135 0.13458939 0.079847425 -0.38256633
-1.2744237 -0.11472331 0.10138548 0.14669773 -0.37326282 -0.17653121 -0.06416363 0.098929845
0.07773152 -0.49861583 -1.2667298 0.013704973 -0.019389719 0.1624412 -0.18886714 -0.022815565
0.0015824446 -0.34605446 -0.0132914875 -0.15050727 -0.062060826 -0.21816412 -0.87599677 -0.18042359
-0.15374851 -0.023573035 0.13072127 0.12944016 -0.04273415 -0.297907 0.16418935 -0.030061286
0.3769115 0.0042486982 -0.16084814 -0.24345167 -0.72048235 0.19921663 -0.06198672 -0.029422522
-0.11771689 -0.11612759 -0.28742775 -0.042878665 0.4266977 -0.32292178 -0.41024834 -0.3446245
0.1326713 0.031302918 -0.1502363 0.36095214 -0.019469412 0.2751615 -0.23638916 -0.9082472
0.29827872 0.31546026 0.17622666 -0.32287502 -0.09688015 0.09810255 -0.071198374 0.27754837
0.26602286 0.0021050582 0.086070135 0.063046254 0.17736958 -0.098761484 -0.09276432 -0.039871056
0.058859482 0.09805222 0.12342472 -0.21701322 0.28208837 0.21571198 0.001075585 -0.2904813
-0.08263173 -0.023442158 -0.010942686 -0.11214377 0.04178834 -0.07414602 -0.0006550742 0.12782204
0.06106209 0.050664436 0.15555353 0.09567889 -0.37217823 0.08060243 0.2718157 0.1303537
-0.060877796 0.010914781 0.1213336 0.042254124 0.008122386 -0.14931457 -0.04501961 0.09288051
-0.23140477 0.013854797 -0.032670878 0.3561535 -0.5683353 -0.012142628 -0.5655386 -1.8245506
-0.036801178 0.11257555 0.06136592 0.17823003 0.26487273 -0.038785573 0.094320945 0.23790635
0.13266397 -0.016840411 0.003400983 -0.006517841 -0.008914816 -0.27940288 0.0025687937 -0.29660434
-0.025324866 0.09423386 -0.20471226 -0.05121881 0.038446773 -0.35347918 0.1891221 -0.078837596
-0.018991284 -0.5075741 -0.34573963 -0.11544258 -0.2654573 -0.022685621 0.29940444 0.36969385
-0.062494174 -0.02434955 0.03381029 -0.079888046 0.26471877 0.07084746 0.022381185 -0.16932294
0.14573649 -0.4736347 0.11561929 -0.35113427 0.22238538 -0.23599938 0.037302718 -0.057371635
-0.040655255 0.00037237915 -0.010482836 0.11230621 0.0507603 0.09983397 0.3972259 0.08213087
-0.0695467 -0.7840845 -1.9849222 0.029930374 0.0002972814 0.04976019 -0.05687598 0.009104424
0.05239825 0.07011831 0.07001297 -0.03184326 -0.17470583 0.1403451 0.06354647 0.14331342
0.19423029 -0.05488577 0.065234505 0.027702466 0.07839037 0.05292066 -0.041940954 0.15807942
-0.03686116 0.020822113 -0.019028964 0.09616823 -0.01987711 -0.0074820733 -0.27886513 -0.036818236
0.010887613 -0.05114774 0.13081102 -0.09158496 -0.2816516 0.016533742 -0.009511795 0.64576995
-0.042644933 -0.02574056 0.018357228 0.04163112 -0.029573109 -0.17188533 -0.21118318 0.11733372
0.065825455 0.5992485 -0.28973207 -0.05294927 0.089015774 0.047190227 0.22523253 -0.2985009
-0.08574225 0.051757563 -0.15297319 0.112959415 -0.112495415 -0.0896076 0.029487172 -0.062264036
00000000: 663b 773e c7a7 adbe 1882 1dbf 0952 60be
00000010: c611 5cbf 913d 283d 38b8 22bd 8fa7 2c3e
00000020: 5916 6bbd 1956 cabe 370d 33be a6a0 fc3d
00000030: e2eb 8cbd 4648 41be d7b8 83be 41ca 1d3e
00000040: 07e7 94be 3645 72be 6086 95be 7252 05bf
00000050: 702d a63d cdd1 093e 0c87 a33d bcdf c3be
00000060: 5120 a3bf 0ef4 eabd 31a3 cf3d ee37 163e
00000070: 4e1c bfbe 99c4 34be 3968 83bd bb9b ca3d
00000080: b431 9f3d 934a ffbe 3424 a2bf d38a 603c
00000090: 30d7 9ebc fc56 263e 6366 41be b5e7 babc
000000a0: 086a cf3a 0d2e b1be 8ac4 59bc 941e 1abe
000000b0: 7e33 7ebd 6a66 5fbe 5341 60bf f6c0 38be
000000c0: 4070 1dbe 3d1c c1bc ccdb 053e f68b 043e
000000d0: 010a 2fbd 4487 98be 4121 283e 1643 f6bc
000000e0: 8bfa c03e aa38 8b3b 60b5 24be 654b 79be
000000f0: 8871 38bf 72ff 4b3e c9e5 7dbd 8007 f1bc
00000100: 8e15 f1bd 4dd4 edbd bb29 93be 8aa1 2fbd
00000110: 1f78 da3e 0156 a5be 120c d2be 9f72 b0be
00000120: fcda 073e 7d37 003d 8bd7 19be b8ce b83e
00000130: 517e 9fbc f8e1 8c3e 0010 72be e382 68bf
00000140: fdb7 983e 0284 a13e c374 343e e04f a5be
00000150: 1a69 c6bd fde9 c83d 74d0 91bd d21a 8e3e
00000160: 2634 883e 04f5 093b 8a45 b03d 651e 813d
00000170: 5fa0 353e 7643 cabd 38fb bdbd d54f 23bd
00000180: a416 713d 9acf c83d 19c6 fc3d b738 5ebe
00000190: e36d 903e 9ae3 5c3e a5fa 8c3a f7b9 94be
000001a0: d33a a9bd c509 c0bc f448 33bc a2ab e5bd
000001b0: 402a 2b3d ded9 97bd 49b9 2bba c8e3 023e
000001c0: 3e1c 7a3d 8385 4f3d 6d49 1f3e 4bf3 c33d
000001d0: 258e bebe e312 a53d 6d2b 8b3e 717b 053e
000001e0: ff5a 79bd e9d3 323c c07d f83d a912 2d3d
000001f0: c213 053c ebe5 18be 7c66 38bd 2338 be3d
00000200: 5ff5 6cbe 3bff 623c e6d1 05bd c059 b63e
00000210: 6c7e 11bf e0f1 46bc 23c7 10bf e08a e9bf
00000220: d5bc 16bd 038e e63d d55a 7b3d ef81 363e
00000230: 669d 873e 9fdd 1ebd 572b c13d b99d 733e
00000240: 10d9 073e e7f4 89bc 07e3 5e3b 9d93 d5bb
00000250: 730f 12bc e50d 8fbe 3559 283b 86dc 97be
00000260: 1876 cfbc affd c03d 17a0 51be d1ca 51bd
00000270: 5d7a 1d3d 39fb b4be 39a9 413e 9b75 a1bd
00000280: 9c93 9bbc 60f0 01bf c904 b1be 296d ecbd
00000290: 05ea 87be 32d7 b9bc 8a4b 993e 8348 bd3e
000002a0: e4f9 7fbd b578 c7bc a97c 0a3d 589c a3bd
000002b0: 3889 873e 7918 913d bf58 b73c fe62 2dbe
000002c0: f23b 153e 3f80 f2be cec9 ec3d dfc7 b3be
000002d0: feb8 633e d2a9 71be bcca 183d 85fe 6abd
000002e0: 2086 26bd e23b c339 33c0 2bbc cc00 e63d
000002f0: 08ea 4f3d c175 cc3d 3161 cb3e 3b34 a83d
00000300: 806e 8ebd c3b9 48bf ee11 febf 8b30 f53c
00000310: 6fdc 9b39 57d1 4b3d caf6 68bd b92a 153c
00000320: 8c9f 563d 309a 8f3d f662 8f3d 146e 02bd
00000330: 16e6 32be a0b6 0f3e a724 823d c1c0 123e
00000340: 4ee4 463e e7cf 60bd ab99 853d 48f0 e23c
00000350: 218b a03d 55c3 583d 47ca 2bbd 92df 213e
00000360: bafb 16bd 2393 aa3c a1e2 9bbc d9f3 c43d
00000370: 52d5 a2bc 2e2c f5bb 69c7 8ebe b8ce 16bd
00000380: f561 323c 4b80 51bd 53f3 053e e590 bbbd
00000390: a334 90be c571 873c 5cd7 1bbc 2e51 253f
000003a0: 74ac 2ebd dedd d2bc e661 963c 6585 2a3d
000003b0: 4e43 f2bc b502 30be 6740 58be a94c f03d
000003c0: 7fcf 863d 5a68 193f c357 94be 55e1 58bd
000003d0: e74d b63d 8a4a 413d 5ba3 663e 1cd5 98be
000003e0: a299 afbd bdff 533d 01a5 1cbe 4457 e73d
000003f0: ff63 e6bd 3084 b7bd 158f f13c 9308 7fbd

fc1.bias f4 [64]
0.1402848 -0.09291481 -0.12159544 -0.022088883 0.15938306 0.071257256 -0.20067264 0.0025026528
-0.08237357 -0.13491438 0.09658212 0.2455151 0.24147005 0.014656026 -0.024466421 0.021246536
0.20911905 0.03839444 -0.03873765 -0.18743707 -0.09348587 0.095615745 -0.031521384 -0.10438102
-0.15994495 0.061938062 -0.16596627 -0.103491 0.13444322 0.08505851 0.006086586 -0.27348393
0.10011236 0.053470004 -0.1657764 -0.04386637 -0.021619804 0.103854336 0.014301024 -0.114332065
-0.06824855 -0.024096202 -0.09769276 0.058988374 0.048279006 -0.07166341 0.016454061 -0.24521594
-0.21952519 -0.027650936 -0.19269197 0.084398724 -0.012535406 -0.07235964 -0.21235706 0.103924476
0.16509569 -0.1993962 -0.08550574 -0.16445205 0.14629996 0.07984646 0.02714301 -0.017236402
00000000: d2a6 0f3e 1f4a bebd 0807 f9bd bff3 b4bc
00000010: 5035 233e 53ef 913d 217d 4dbe 8c03 243b
00000020: 79b3 a8bd ff26 0abe d9cc c53d 4f68 7b3e
00000030: ed43 773e d41f 703c ce6d c8bc 370d ae3c
00000040: 4e23 563e 7d43 1d3d 5fab 1ebd 81ef 3fbe
00000050: 8575 bfbd 30d2 c33d 911c 01bd b7c5 d5bd
00000060: 9cc8 23be c4b2 7d3d 10f3 29be 17f3 d3bd
00000070: 7cab 093e 2833 ae3d fc71 c73b 1606 8cbe
00000080: b607 cd3d 5d03 5b3d 4ac1 29be 39ad 33bd
00000090: 041c b1bc 95b1 d43d d84e 6a3c ee26 eabd
000000a0: e5c5 8bbd 6665 c5bc 2413 c8bd cb9d 713d
000000b0: 35c0 453d 44c4 92bd abca 863c e319 7bbe
000000c0: 36cb 60be 3784 e2bc 0b51 45be 3dd9 ac3d
000000d0: 4e61 4dbc 4a31 94bd 2174 59be 5bd6 d43d
000000e0: d80e 293e 842e 4cbe a21d afbd 1e66 28be
000000f0: a8cf 153e 8a86 a33d 055b de3c 5b33 8dbc

fc2.weight f4 [64, 64]
-0.21840034 0.15653916 0.2590948 0.5928677 -0.56811565 0.06492458 -0.4113108 -0.1437903
0.14202762 -0.2918175 -0.5326949 0.022835055 -0.36466733 0.009645778 0.062309533 -0.35443103
-0.24657014 0.029346298 -0.60674274 -0.16095267 0.028248599 -0.437724 -0.007472799 -0.07529131
-0.16075644 0.28895557 0.043139674 0.17934638 -0.07408954 0.035209414 0.28028628 -0.58348596
-0.034688737 0.4058156 -0.08937642 -0.1301528 -0.5675903 0.18655175 -0.425033 0.2019401
-0.35777918 0.039450236 0.7083428 -0.08321481 0.069242395 -1.1392239 -0.32828745 0.12017165
-0.59977704 0.10985926 -0.32871318 -0.0303388 0.1993507 0.32201132 -0.51242423 -0.0139538795
0.11428813 -0.43015876 0.05949689 -0.24184333 -0.10356616 0.25667262 -0.25381017 0.12751015
0.3598804 -0.18354511 0.14412297 -0.30916965 0.20567761 0.1625658 -0.053569127 0.072059505
-0.015594374 0.23963684 0.11445231 0.37665266 -0.10463192 -0.049343158 0.17121042 -0.21258026
0.05810562 0.13181904 -0.23271832 -0.014343908 -0.19411094 -0.30967334 0.03564291 -0.01438992
-0.24977261 -0.011474809 0.20545642 -0.30880767 0.17578945 0.020566516 -0.32316002 0.9865288
-0.22707921 0.069472305 0.06745788 0.0054954602 -0.18353957 -0.04008913 0.18351765 -0.0198255
-0.3420433 -0.57357615 0.1618707 -0.10603791 0.17332192 0.0571102 -0.088573985 -0.19907297
0.14704917 0.1626178 0.092680655 0.14295492 0.063861564 0.043816023 -0.48803726 -0.058302764
-0.21526578 -0.042097718 0.2831358 -0.017061407 -0.20254739 -0.13500968 -0.3229135 -0.49571058
-0.15088028 -0.1925903 -0.21046922 -0.125293 -0.14320312 0.19912137 -0.35060883 0.097587034
0.002988806 -0.48549065 -0.09723158 -0.20469709 0.05290359 0.045694623 0.032304663 0.070417374
-0.15416208 -0.19742805 -0.25011203 -0.18095501 -0.12429094 -0.0097245425 -0.11395595 -0.24029152
-0.3958124 0.0004539745 0.124495186 -0.0132681 -0.2997906 -0.02442079 0.033580635 -0.17564702
-0.3347174 -0.31775203 -0.31456852 -0.09726877 0.073894605 0.09401101 -0.089120425 -0.13084146
-0.14654523 -0.075318 -0.14861833 -0.048835404 -0.2556601 -0.2920147 -0.16258648 -0.38996142
0.19858602 -0.079618454 -0.37822545 0.16008133 -0.14112672 -0.121067636 -0.050718717 -0.32554603
0.092783555 -0.058106408 -0.03453077 0.05559413 -0.23160157 -0.20357805 0.2986426 -0.092238754
0.13834913 0.056595773 -0.13309816 0.04544581 -0.008088353 -0.27619997 -0.09708366 0.12083811
-0.26499894 -0.24770503 -0.09147671 -0.22472757 -0.115438364 -0.69240016 0.5059893 0.14170544
-0.06797528 -0.7601596 -0.13876164 0.08195241 0.056089513 0.008030709 -0.15106237 0.29103354
0.18577617 0.17103381 -0.06655235 0.055476665 -0.31407613 -0.7940712 0.38657954 -0.033543356
-0.09921404 0.12833485 0.12017723 0.079906575 0.06310568 0.07552097 0.44757992 -0.041532613
-0.5257661 0.35687265 0.2510426 -0.097605765 -0.2272468 0.32679537 0.08787689 -0.09686697
-0.15484673 -0.14945483 0.017898742 -0.05933381 -0.056545913 0.13523878 -0.26453924 0.016873743
-0.07998919 -0.37967098 -0.12909766 -0.22042854 -0.013713969 -0.04470341 -0.023200313 0.17197153
00000000: 57a4 5fbe cd4b 203e 13a8 843e 2dc6 173f
00000010: 0770 11bf 2ef7 843d 5497 d2be c43d 13be
00000020: b06f 113e 1a69 95be b15e 08bf 9510 bb3c
00000030: adb5 babe 5309 1e3c 4838 7f3d fc77 b5be
00000040: e27c 7cbe a667 f03c 7e53 1bbf c7d0 24be
00000050: 9b69 e73c 5c1d e0be 62de f4bb 5532 9abd
00000060: 569d 24be fcf1 933e 3ab3 303d 94a6 373e
00000070: 42bc 97bd bf37 103d af81 8f3e 565f 15bf
00000080: c715 0ebd 10c7 cf3e fc0a b7bd c746 05be
00000090: 994d 11bf 6c07 3f3e ed9d d9be 63c9 4e3e
000000a0: d52e b7be 9296 213d f455 353f 876c aabd
000000b0: f5ce 8d3d 17d2 91bf 4b15 a8be 8e1c f63d
000000c0: fd8a 19bf e4fd e03d 184d a8be 1389 f8bc
000000d0: 9722 4c3e abde a43e 3c2e 03bf d09e 64bc
000000e0: e50f ea3d c53d dcbe 03b3 733d c7a5 77be
000000f0: 7f1a d4bd 986a 833e 68f3 81be 0592 023e
00000100: 3e42 b83e 40f3 3bbe f994 133e 7c4b 9ebe
00000110: 279d 523e a677 263e 4d6b 5bbd ef93 933d
00000120: 8c7f 7fbc 5c63 753e f965 ea3d 9ed8 c03e
00000130: 4349 d6bd 0d1c 4abd c951 2f3e a4ae 59be
00000140: 2900 6e3d 92fb 063e b64d 6ebe b602 6bbc
00000150: 05c5 46be 818d 9ebe 4dfe 113d b3c3 6bbc
00000160: 64c4 7fbe d600 3cbc 2b63 523e 0a1c 9ebe
00000170: 2602 343e 1c7b a83c 3b75 a5be 278d 7c3f
00000180: 7487 68be 7f47 8e3d 5b27 8a3d 4313 b43b
00000190: ccf1 3bbe 8034 24bd 0dec 3b3e 1669 a2bc
000001a0: 4d20 afbe e3d5 12bf 6fc1 253e 672a d9bd
000001b0: 4d7b 313e 63ec 693d 4766 b5bd c9d9 4bbe
000001c0: 0f94 163e 4885 263e 5bcf bd3d c662 123e
000001d0: dac9 823d 6e78 333d 05e0 f9be e1ce 6ebd
000001e0: a26e 5cbe a86e 2cbd 2df7 903e 5dc4 8bbc
000001f0: 9568 4fbe fa3f 0abe eb54 a5be c7cd fdbe
00000200: 5c80 1abe 6436 45be 3e85 57be cf4c 00be
00000210: d7a3 12be 79e6 4b3e 0083 b3be b6db c73d
00000220: d8df 433b 3b92 f8be 5a21 c7bd 1d9c 51be
00000230: 6fb1 583d 492a 3b3d e551 043d fc36 903d
00000240: aadc 1dbe 942a 4abe af0e 80be 454c 39be
00000250: 408c febd b053 1fbc bd61 e9bd fb0e 76be
00000260: eca7 cabe 6d03 ee39 55f7 fe3d 7262 59bc
00000270: 277e 99be 1c0e c8bc d98b 093d d0dc 33be
00000280: 1460 abbe 65b0 a2be 200f a1be d934 c7bd
00000290: 0e56 973d d888 c03d c584 b6bd 4efb 05be
000002a0: f40f 16be 5340 9abd 672f 18be a207 48bd
000002b0: e1e5 82be f382 95be 127d 26be 06a9 c7be
000002c0: 225a 4b3e 000f a3bd c4a6 c1be 5cec 233e
000002d0: 8683 10be 4ff2 f7bd 6ebe 4fbd f8ad a6be
000002e0: 4e05 be3d fc00 6ebd 2370 0dbd acb6 633d
000002f0: f628 6dbe c476 50be afe7 983e ace7 bcbd
00000300: 65ab 0d3e f8d0 673d e24a 08be 6325 3a3d
00000310: 0385 04bc 156a 8dbe ccd3 c6bd f979 f73d
00000320: f1ad 87be 63a6 7dbe 2458 bbbd fc1e 66be
00000330: f36a ecbd 2341 31bf 8488 013f 3b1b 113e
00000340: a036 8bbd d299 42bf 8817 0ebe aad6 a73d
00000350: 1ebe 653d 3c93 033c 18b0 1abe 5902 953e
00000360: 1c3c 3e3e 7d23 2f3e 994c 88bd 803b 633d
00000370: 96ce a0be 4048 4bbf c1ed c53e c264 09bd
00000380: bb30 cbbd 366a 033e 7b1f f63d 0fa6 a33d
00000390: 8d3d 813d bdaa 9a3d 3229 e53e 1a1e 2abd
000003a0: 9b98 06bf 03b8 b63e a888 803e 88e5 c7bd
000003b0: 63b3 68be b951 a73e cdf8 b33d 3162 c6bd
000003c0: 2490 1ebe b00a 19be 62a0 923c 0208 73bd
000003d0: b09c 67bd 097c 0a3e b071 87be ce3a 8a3c
000003e0: 5fd1 a3bd 3c64 c2be 2d32 04be 05b8 61be
000003f0: 8eb0 60bc ec1a 37bd 950e bebc 4e19 303e

fc2.bias f4 [64]
-0.057609558 0.06448997 0.060893025 -0.035942987 0.14071573 -0.08850444 0.17899771 -0.08888591
0.52451986 0.8114622 -0.28994834 0.27517965 0.5233382 -0.13032243 0.0033183303 0.02968237
0.07118801 -0.15142581 -0.031259947 0.36825117 0.39002207 0.8614401 -0.22007401 -0.04552249
0.18445125 -0.091380596 0.05809088 -0.31667244 -0.07067573 0.18007967 0.08886113 -0.21987802
0.02861771 0.20901129 0.069559395 0.18395858 -0.09774569 -0.08621598 0.07134816 0.06599693
-0.15800391 0.8050597 0.76088774 -0.07705772 0.067582585 -0.011296803 0.36732462 -0.0045779413
0.058751673 -0.25799447 -0.13134286 0.46822524 -0.13417017 -0.056439962 0.2369526 0.39100245
-0.17012182 -0.13032031 0.04448682 -0.15243654 -0.17583153 0.21557088 0.0699006 -0.20072985
00000000: 00f8 6bbd 5113 843d f76a 793d f438 13bd
00000010: c917 103e d141 b5bd 2d4b 373e d109 b6bd
00000020: ef46 063f fdbb 4f3f 1c74 94be 59e4 8c3e
00000030: 7ef9 053f 3e73 05be 5878 593b 7128 f33c
00000040: 05cb 913d 5e0f 1bbe 6e0a 00bd 6b8b bc3e
00000050: f9b0 c73e 5787 5c3f 155b 61be ca75 3abd
00000060: cae0 3c3e c025 bbbd b4f0 6d3d e422 a2be
00000070: 70be 90bd ce66 383e d3fc b53d b427 61be
00000080: b06f ea3c 0e07 563e 2875 8e3d a35f 3c3e
00000090: e42e c8bd 0192 b0bd fc1e 923d 6629 873d
000000a0: c7cb 21be 6418 4e3f 8ac9 423f 70d0 9dbd
000000b0: bd68 8a3d 3a16 39bc f911 bc3e 8e02 96bb
000000c0: 98a5 703d da17 84be be7e 06be 38bb ef3e
000000d0: e863 09be 972d 67bd b4a3 723e 7931 c83e
000000e0: 6a34 2ebe b072 05be d037 363d 5318 1cbe
000000f0: 2e0d 34be 9dbe 5c3e 0c28 8f3d 208c 4dbe

fc3.weight f4 [4, 64]
-0.38897112 0.098280594 -0.12871446 -0.17053236 0.5206287 0.3246904 0.2226701 -0.38825157
0.25609455 0.24470547 -0.136241 0.081467554 0.20476303 -0.36153078 -0.025555994 -0.03879403
0.07299569 0.02804904 -0.38158193 0.2195751 0.059394717 0.28429344 0.0035308776 0.08813313
0.12647073 -0.19341911 -0.0657571 -0.25755054 -0.34689024 -0.015846066 -0.5976704 0.3809551
0.4807459 0.24176027 -0.017937338 0.060323216 0.4847617 0.0703078 -0.28880373 0.14369869
-0.23192206 0.23935212 0.21662767 -0.094026096 0.309976 0.08084408 0.21111836 0.48468456
-0.01318267 -0.13158767 -0.20502411 0.51311535 -0.33052513 -0.5412482 0.041139692 0.24301817
-0.25751537 0.14737678 0.09424074 0.3232047 -0.40626112 0.33279744 -0.09959987 -0.08321882
-0.09338911 0.080910735 0.4356652 0.09006335 0.4798132 0.38455227 0.25599954 -0.08695472
0.28377283 0.23970513 -0.2156146 0.029184436 0.2937794 0.038612492 0.30370885 0.20096232
0.21841206 0.15358897 -0.13288268 0.22953376 0.21407561 0.2906207 -0.09116362 0.35713416
0.19906496 0.014156239 -0.2171415 -0.16708681 0.43956482 0.03197343 -0.0493344 0.3057714
0.16759065 0.33610702 0.15285778 0.21846783 0.47015795 0.17112799 0.02145913 0.22144333
-0.27837777 0.22460805 0.18994713 0.21316727 0.35895932 -0.13424249 0.15898979 0.4719193
0.1631949 -0.175734 -0.15593097 0.35820234 -0.108052164 -0.012737285 0.08383526 0.22592513
-0.07532787 0.08611749 0.07743662 -0.28668532 -0.085548006 0.46463856 -0.27967662 -0.08934822
-0.48194942 0.15098974 0.05190986 0.30113724 0.42083412 0.397283 0.1771867 0.03132522
0.25158152 0.221339 -0.11567853 0.30484143 0.27028623 0.1963638 0.43799168 0.20226336
0.37080318 0.12917516 -0.47889936 0.15204272 0.12445768 0.28792143 -0.27898738 0.041304737
0.21650177 -0.0671922 -0.5476263 -0.40052915 0.11033766 0.30071422 -0.2800378 -0.3024323
0.015792722 -0.06807421 0.2887867 0.23693071 -0.039996695 0.022497477 0.5454676 0.17208144
0.14489256 0.2597889 0.2707859 -0.12216645 0.1796618 -0.26729125 0.19688363 0.23897336
0.36203757 0.0031940618 0.11334939 0.32017723 -0.1595624 -0.107555725 0.000112379355 0.19404179
-0.24965781 -0.6053423 0.2511693 0.35232192 -0.12711516 0.07681397 -0.4729233 -0.28738225
0.096622035 0.2992922 0.22301692 -0.30274063 0.06576078 0.24778968 -0.13060047 -0.05849242
0.126745 0.26287195 -0.09994881 0.20021962 0.376738 -0.11857982 0.56701916 0.025897328
0.28055504 0.1132696 0.15271431 0.22412458 0.062429268 0.3155109 -0.18681924 0.76918644
0.07984517 -0.40944552 0.31336984 0.014202923 0.34666342 0.04935392 -0.47883043 -0.24918902
0.29810998 0.16403043 0.16774216 0.14720756 0.26620027 0.45504493 0.01702236 0.1264923
-0.36363453 0.27428228 0.24320894 -0.7416356 0.21617801 -0.06302065 0.107845455 0.45153484
0.05069674 0.04318734 0.4055795 0.25225404 0.0125232255 -0.51244974 0.19633612 0.34611347
-0.020170555 0.056254707 -0.39258486 0.2545311 -0.19131143 -0.048690088 -0.60636044 -0.23790154
00000000: 3927 c7be 5647 c93d b9cd 03be 09a0 2ebe
00000010: ec47 053f d23d a63e a103 643e e9c8 c6be
00000020: d31e 833e 1294 7a3e c382 0bbe 76d8 a63d
00000030: 66ad 513e 901a b9be ce5a d1bc 7de6 1ebd
00000040: c47e 953d 1ac7 e53c b55e c3be 4cd8 603e
00000050: e047 733d e98e 913e 4c66 673b 247f b43d
00000060: 8b81 013e a90f 46be a9ab 86bd aadd 83be
00000070: 999b b1be 9ccf 81bc ed00 19bf 8c0c c33e
00000080: 5424 f63e 0190 773e 53f1 92bc 7a15 773d
00000090: af32 f83e 89fd 8f3d 15de 93be c025 133e
000000a0: fa7c 6dbe b918 753e a5d3 5d3e c190 c0bd
000000b0: 2db5 9e3e 9591 a53d 692f 583e 9328 f83e
000000c0: 20fc 57bc ebbe 06be d7f1 51be 875b 033f
000000d0: 973a a9be 3e8f 0abf 1882 283d c1d9 783e
000000e0: 0ed9 83be f0e9 163e 4a01 c13d 167b a53e
000000f0: 7501 d0be 6d64 aa3e 04fb cbbd a16e aabd
00000100: ca42 bfbd 87b4 a53d 820f df3e 2273 b83d
00000110: 13aa f53e 09e4 c43e 5f12 833e 5115 b2bd
00000120: ac4a 913e 4375 753e 13ca 5cbe 3314 ef3c
00000130: 416a 963e 2228 1e3d ba7f 9b3e 11c9 4d3e
00000140: 69a7 5f3e 6d46 1d3e 6612 08be e60a 6b3e
00000150: a336 5b3e 3dcc 943e feb3 babd 4ada b63e
00000160: afd7 4b3e 92ef 673c 575a 5ebe ce18 2bbe
00000170: a40e e13e 92f6 023d de12 4abd 128e 9c3e
00000180: e29c 2b3e 3816 ac3e c086 1c3e 08b6 5f3e
00000190: 8bb8 f03e 2d3c 2f3e 0fcb af3c 0ac2 623e
000001a0: 8887 8ebe a7ff 653e 8081 423e 8548 5a3e
000001b0: 84c9 b73e dd76 09be 38ce 223e 689f f13e
000001c0: 901c 273e 9df3 33be 5eac 1fbe 4c66 b73e
000001d0: 744a ddbd 0cb0 50bc d2b1 ab3d eb58 673e
000001e0: 8045 9abd 5e5e b03d 1797 9e3d 6bc8 92be
000001f0: cb33 afbd 1be5 ed3e c631 8fbe 33fc b6bd
00000200: 13c2 f6be 0e9d 1a3e 6f9f 543d a92e 9a3e
00000210: 9277 d73e ad68 cb3e 6e70 353e e04e 003d
00000220: 4bcf 803e b1a6 623e dde8 ecbd 2d14 9c3e
00000230: f562 8a3e 9813 493e 7240 e03e 201e 4f3e
00000240: ead9 bd3e 7e46 043e 4c32 f5be 16b1 1b3e
00000250: abe3 fe3d 706a 933e 6fd7 8ebe 282f 293d
00000260: a4b2 5d3e 109c 89bd 3d31 0cbf 2812 cdbe
00000270: b6f8 e13d 37f7 993e 1d61 8fbe 68d8 9abe
00000280: bd5f 813c 7e6a 8bbd dadb 933e f79d 723e
00000290: 93d3 23bd a14c b83c c4a3 0b3f 1e36 303e
000002a0: b75e 143e 0d03 853e 73a4 8a3e 6732 fabd
000002b0: 43f9 373e 66da 88be dd9b 493e 6fb5 743e
000002c0: fd5c b93e 7753 513b ba23 e83d 45ee a33e
000002d0: 5364 23be 2d46 dcbd 35ad eb38 e4b2 463e
000002e0: 4ca6 7fbe b7f7 1abf 4399 803e 8a63 b43e
000002f0: 7a2a 02be a550 9d3d 0123 f2be c423 93be
00000300: c6e1 c53d d43c 993e 8c5e 643e d200 9bbe
00000310: 96ad 863d 94bc 7d3e 21bc 05be bf95 6fbd
00000320: 71c9 013e 2797 863e f6b1 ccbd 5f06 4d3e
00000330: cee3 c03e fad9 f2bd 2b28 113f a226 d43c
00000340: e9a4 8f3e e4f9 e73d 2461 1c3e ea80 653e
00000350: d5b5 7f3d a58a a13e 8b4d 3fbe 67e9 443f
00000360: dd85 a33d d8a2 d1be 0372 a03e 60b3 683c
00000370: de7d b13e 5627 4a3d 4329 f5be 682b 7fbe
00000380: dfa1 983e 98f7 273e 9ac4 2b3e 94bd 163e
00000390: 674b 883e a6fb e83e 7a72 8b3c 3387 013e
000003a0: 4e2e babe ba6e 8c3e c40b 793e d5db 3dbf
000003b0: c55d 5d3e f810 81bd 14de dc3d 932f e73e
000003c0: 63a7 4f3d 35e5 303d 1ea8 cf3e 7127 813e
000003d0: 372e 4d3c e82f 03bf 560c 493e c935 b13e
000003e0: b83c a5bc 566b 663d e200 c9be e651 823e
000003f0: 25e7 43be 426f 47bd 703a 1bbf 769c 73be

fc3.bias f4 [4]
0.5854524 0.36512193 0.41676375 0.40820244
00000000: 35e0 153f 43f1 ba3e 0f62 d53e e9ff d03e
