checkpoint_doubleQ_SOLVED-689.pth (torch_old, 28345 bytes, 6 tensors)

fc1.weight f4 [64, 37]
000000 86 ce 19 3e 14 c4 42 bd 95 ab ea be e7 71 33 be
       0.15020189 -0.047550276 -0.45834032 -0.17523919
000010 2f fa 28 be 56 ed 6c 3c 20 91 fc 3d 01 bf 18 3e
       -0.16501687 0.014460882 0.12332368 0.14916612
000020 37 83 59 be 6b 49 17 be 73 19 e3 bd e0 83 98 bd
       -0.2124146 -0.147741 -0.110888384 -0.07447028
000030 c1 5f c1 3d 79 13 9d be f5 c9 70 be b6 67 ed 3c
       0.09442092 -0.3067892 -0.2351454 0.028980117
000040 ac 4b d5 3d e4 1c 93 bd ae 54 6f be cb e8 95 be
       0.10414824 -0.07183245 -0.23372146 -0.2927917
000050 9d e4 2b 3e ee f8 9d bb f5 a6 50 bd 15 98 a5 bd
       0.16786428 -0.0048209345 -0.050940473 -0.08085648
000060 9e 45 c0 be dc ae d6 bd 0d 8e 57 3e a1 d2 d8 bd
       -0.37553114 -0.104825705 0.21050282 -0.10587049
000070 1d 8d 9c be 3c 60 1e be 44 41 2c bd f9 93 52 bd
       -0.3057641 -0.15466398 -0.04205443 -0.05141065
000080 2b 5c 93 3d 42 4d c9 be 85 c2 11 bf 0d 17 c1 bd
       0.07195314 -0.39316756 -0.5693744 -0.09428225
000090 2d fd da bc 13 aa 6d 3e 16 36 8f bd 04 91 c2 3d
       -0.026732052 0.2320941 -0.06992738 0.09500316
0000a0 0b 91 c2 bd 6d 05 d1 be 42 cb 7e 3d e1 e1 ad bd
       -0.09500321 -0.40824452 0.06220556 -0.084903486
0000b0 5f ae 91 be 4e 0e 38 be cb 8d 0e bf a6 04 fe ba
       -0.28453347 -0.17974207 -0.5568511 -0.0019380047
0000c0 8d b0 4c be 15 70 d9 3d 2f c2 26 3e 61 01 6c 3e
       -0.19989224 0.10617081 0.16285013 0.23047401
0000d0 ba 5d 8a bd 12 e2 dc bd 7b 5b 60 3e 98 4b d4 3c
       -0.06756158 -0.10785307 0.21909897 0.025914952
0000e0 ac 4c 17 3e 23 e9 04 bc b5 46 01 be fb 16 40 be
       0.14775342 -0.008112225 -0.12624629 -0.18758766
0000f0 38 89 26 be 53 a8 8d bc 61 13 20 bb af c2 41 3d
       -0.16263282 -0.017292177 -0.0024425613 0.047304805
000100 a4 a2 8a bd b8 5f 3b be f3 dd fa bd 70 d7 43 3d
       -0.067693025 -0.18298233 -0.12249365 0.04781288
000110 be 29 4a 3e 21 c5 b3 3d af 4d 02 bd 8b 03 99 be
       0.19742486 0.08777834 -0.031812366 -0.29885516
000120 dd ec cd 3d 79 68 78 3c 11 46 0a be b1 87 74 3e
       0.10054944 0.015161627 -0.1350329 0.23879887
000130 7b 66 e1 3d 33 4b 52 3e f4 31 60 be 34 40 10 bf
       0.11005875 0.20536499 -0.21894056 -0.56347966
000140 64 68 75 3e 82 27 99 3e 4e 6c 9c 3d f4 ce 16 be
       0.23965603 0.29912955 0.07637845 -0.14727384
000150 b7 e0 44 3b bc 2b e1 bc e3 9e 9b 3c 64 c5 30 3e
       0.0030041167 -0.027486674 0.018996662 0.17262799
000160 cc 01 83 3e 0b c2 06 be 39 2c 13 3e 48 13 1f 3d
       0.25587308 -0.13159959 0.14372338 0.038836747
000170 41 37 1e 3e f7 fa 21 bc ee 82 09 bd 66 87 f2 bd
       0.15450765 -0.009886495 -0.03357213 -0.118422315
000180 4f 1c 6a bb 6b 1a 1a 3e c5 fe d8 3d cb 88 08 bf
       -0.003572244 0.1504914 0.105954684 -0.5333373
000190 48 3b 94 3e f8 83 8d 3e 01 0a 6c 3c e2 c9 80 be
       0.28951478 0.27639747 0.014406682 -0.25154024
0001a0 4b ea 0f be 10 06 46 bd ee 5e 81 bc c2 0c 6b bd
       -0.1405422 -0.048345625 -0.015792336 -0.057385214
0001b0 1e ac 2a bd da c6 6b bd 5c 26 a5 3c d7 e1 3a 3d
       -0.04166805 -0.057562687 0.020159893 0.045625534
0001c0 66 7d ab 3c 78 f2 28 3e f0 52 4f 3d b2 bf 91 3d
       0.020933818 0.16498744 0.050616205 0.07116641
0001d0 39 c8 8e be 93 cf 70 3c fa db e4 3d 3a d9 78 3e
       -0.27887133 0.014697927 0.1117477 0.24301615
0001e0 92 ca 8c 3d 0b 70 6c 3d 0f 26 1a 3d 2a 30 61 bb
       0.06874575 0.05772404 0.03763395 -0.0034360983
0001f0 43 d2 85 3c 4c e0 05 bd 28 60 df bc 31 13 2d bd
       0.016335612 -0.03268461 -0.02726753 -0.04225463
000200 5d 4b 2a bd 4c 7a 11 be 4f 65 9c bd 2b d8 a6 3e
       -0.04157578 -0.14206809 -0.076365106 0.32586798
000210 0c be fe be 1a bc 4c bd 2b e5 0b bf 19 84 c4 bf
       -0.4975437 -0.049984075 -0.5464656 -1.5352813
000220 c2 7a 4a bd 05 b0 05 3e b3 2b a0 3c 7f 3a 1e 3e
       -0.049433477 0.13055427 0.019552087 0.15452002
000230 ed 90 af 3e bd 2b 5b 3d 83 50 9c 3d 62 41 bf 3d
       0.34290257 0.05350851 0.07632544 0.09338643
000240 ed e6 d0 3d 70 f1 30 3d 8c 0b c3 3b 00 04 6d bc
       0.102002956 0.043199003 0.005952304 -0.014466286
000250 fa b7 c9 bd 28 c5 37 be 5f 5a af bd 2e 22 60 be
       -0.09849544 -0.17946303 -0.08562159 -0.21888039
000260 7c 1b 3a 3c 2e 65 3e 3e 1d fe 94 bd dc ea 9b be
       0.011359092 0.18593284 -0.07275031 -0.3045262
000270 73 d5 c1 3c 94 48 14 be 65 e8 1f 3e 27 55 d3 bd
       0.02366135 -0.14480811 0.15615995 -0.10318976
000280 68 9c 3d bd eb 83 d7 be c7 32 88 be 23 d1 af bd
       -0.04629174 -0.42092833 -0.2660124 -0.085848115
000290 b8 67 5f be f3 7d c3 bd c7 60 7d 3d bd 0b 39 3e
       -0.2181691 -0.09545507 0.061859872 0.18070884
0002a0 79 8d a0 bd 2a 6d f2 bd a7 1d 0b 3d 52 09 84 3c
       -0.07839484 -0.11837228 0.033963826 0.016117726
0002b0 56 ea 62 3e 84 dc e5 3c 25 f6 14 bd a6 84 bd bc
       0.22159705 0.028059252 -0.036367554 -0.02313454
0002c0 22 3e c1 3d 79 c0 9a be d8 07 08 3e cb e3 83 be
       0.09435679 -0.3022497 0.13284242 -0.2575973
0002d0 c3 26 d8 3d ed f4 18 be ae 53 d6 3d 28 84 8a 3c
       0.10554268 -0.14937182 0.104651794 0.01690872
0002e0 ef 06 fd 3b 20 37 2a 3d cd 53 9a bc f9 ae c9 3c
       0.007721774 0.041556478 -0.018838787 0.024619566
0002f0 c1 e2 3f 3d 1e 4b 8d 3d ef cd c8 3e 97 3f 29 3d
       0.04684711 0.06899093 0.39219615 0.04132041
000300 e8 85 e4 bd 58 12 10 bf 5c 31 c1 bf 83 7e 79 bd
       -0.11158353 -0.5627799 -1.5093188 -0.060911667
000310 14 8e 58 bc 7b cd c0 3c cd 54 c2 bc 56 ce cf 3d
       -0.013217468 0.02353548 -0.023722077 0.10146777
000320 fb a2 25 3d 53 87 a4 3d a6 6e f3 bb bb 8f 82 bd
       0.040438633 0.080336235 -0.007428962 -0.06375071
000330 d5 70 e4 bd 1f c2 37 3e b6 36 f0 3d eb 8a 65 3d
       -0.111543335 0.17945145 0.11729185 0.056040686
000340 be fd 63 3d f2 70 7d 3d 13 c7 30 3d 63 ce 88 bd
       0.05566191 0.06187529 0.043158602 -0.0667999
000350 5b 49 68 3d dd 7a e7 3d 59 40 33 3c a3 2a 3f 3e
       0.056710582 0.11302731 0.010940635 0.18668608
000360 ca b4 e8 bd c6 1a 5a bd 3b 22 ee bc 37 9d 4f 3c
       -0.11362608 -0.05324819 -0.029069057 0.01267176
000370 c4 3a 10 3d 21 5b 94 ba 9b 7d 1c be 81 e0 de 3c
       0.035212293 -0.0011318662 -0.1528229 0.027206661
000380 31 b0 c6 bc 44 f1 51 bc bf f9 98 3c 08 e2 8e bd
       -0.024253936 -0.01281387 0.018673776 -0.06976706
000390 94 60 be bd 8b 34 05 be d0 96 2c 3e 5e 25 06 3f
       -0.092957646 -0.13008325 0.16854405 0.5240077
0003a0 9b 07 be bd a0 f4 bd 3c 44 d3 8c 3d 70 45 02 3e
       -0.092787944 0.023187935 0.06876233 0.12721801
0003b0 91 61 08 bd f2 df 06 be 56 dc 15 be 75 01 23 3e
       -0.03329617 -0.13171366 -0.14634833 0.15918525
0003c0 cf 8d ad 3d 54 2d a0 3e 8d ed 31 be b3 90 05 3c
       0.084743135 0.31284583 -0.17375775 0.008152175
0003d0 51 58 87 3d ae 5e 65 3d 7d 72 6e 3e c4 33 9c be
       0.06608642 0.055998497 0.23285861 -0.30508244
0003e0 f0 7e be bd 73 58 a0 3d ce c3 20 3d 3c 57 3c 3e
       -0.09301555 0.0782937 0.039249234 0.18392652
0003f0 a6 b2 d6 bd 3e f4 8b bc 75 4b ef 3c f4 a7 c3 3c
       -0.10483293 -0.017084237 0.029210785 0.023883797

fc1.bias f4 [64]
000000 e9 70 05 3e 80 d4 5b bd 96 fb 11 be 48 06 49 bd
       0.13031353 -0.053669453 -0.14256129 -0.049078256
000010 c4 95 00 3e 06 29 05 3d 5a ec 01 be 93 1e 57 3c
       0.12557131 0.032509826 -0.12687817 0.013129848
000020 96 c8 60 bd c8 e7 45 be a2 2f c7 3d fa 8c 4d 3e
       -0.054878794 -0.19326699 0.09725882 0.2007331
000030 b6 95 57 3e e1 9c 8d bb e9 e4 5e bc dd 1f 1a 3c
       0.21053204 -0.00432168 -0.013604381 0.009407011
000040 70 f1 f3 3d 9e 4d 5d 3d f4 aa 03 3d f9 2e 1d be
       0.11911285 0.0540291 0.032145455 -0.1534995
000050 e8 4d fa bd 36 90 f8 3d bc 1e 0d bd 70 f3 c5 bd
       -0.12221891 0.12136881 -0.03445314 -0.09665573
000060 a0 a5 3a be f3 28 0a 3d ed 99 bb bd c9 72 04 be
       -0.18227243 0.03373046 -0.091602184 -0.12934412
000070 87 4f 0e 3e 3d 28 b3 3d bc f8 9b 3c 72 30 3d be
       0.13897525 0.08747909 0.019039504 -0.18475512
000080 e2 e6 09 3e cc c0 0b 3d c3 33 e8 bd 96 5c 25 3d
       0.13466981 0.034119412 -0.11337998 0.0403715
000090 46 2d 6d bd c9 0c 8b 3d 69 ac e5 ba b7 3e f3 bd
       -0.057904504 0.06789548 -0.0017522696 -0.11877196
0000a0 b9 bb a4 bd e6 53 9b 3c f6 43 6c bd 54 b3 0b 3e
       -0.08043618 0.018960904 -0.057682 0.13642627
0000b0 19 ac a9 3d a0 6f 71 bd ba e6 2d 3d df 64 6b be
       0.08284778 -0.058944345 0.042456366 -0.22987698
0000c0 29 40 37 be d8 18 79 3c df 86 3a be 6b 7e 97 3d
       -0.17895569 0.015203677 -0.18215512 0.07397159
0000d0 b8 a7 6a bc 1e 68 5f bd c4 4c 51 be 87 95 c4 3d
       -0.014322214 -0.054542653 -0.2043944 0.095988326
0000e0 3e d1 27 3e d7 cb 03 be 73 96 06 be 9e 6b fb bd
       0.16388413 -0.12870727 -0.1314333 -0.12276386
0000f0 de 3c b6 3d e1 95 be 3d cf 58 47 3d 6e 9d af bc
       0.08898328 0.09305931 0.04866868 -0.021437373

fc2.weight f4 [64, 64]
000000 d6 53 5a bc 2a 1f f3 3d 7c 59 a1 3e 9d c2 c0 3e
       -0.013325652 0.118711784 0.31513584 0.37648478
000010 87 9e 5f bd 95 62 77 3a 2e 94 97 be 2a 3a 81 be
       -0.054594543 0.0009436992 -0.2960524 -0.25239688
000020 d0 63 98 3e aa 76 eb bd 43 50 c0 bd 7e 7a 32 3c
       0.2976365 -0.11497243 -0.09390309 0.010893462
000030 34 11 9f be 13 c2 14 3c 4b 12 28 bc f1 da 9f be
       -0.31067812 0.009079474 -0.010258268 -0.31221727
000040 68 e1 96 be 48 d1 12 3d 5e ef 06 be 91 8c b9 bb
       -0.29468846 0.035844117 -0.13177249 -0.005662509
000050 12 e0 b4 bd d5 88 e7 be 82 00 24 bd 24 fd 32 be
       -0.088318005 -0.45221582 -0.040039547 -0.17479378
000060 c2 43 dc bd 0d 62 29 3e dd c2 00 be c7 f8 aa 3d
       -0.10755111 0.1654131 -0.12574334 0.08348232
000070 de 3e 80 3d b5 20 a7 3d 4c 68 8a 3e 19 07 1d bf
       0.06261991 0.08160535 0.27032697 -0.61338955
000080 6f 68 9a 3c 0b 34 76 3e 94 47 7b be 30 28 a1 bd
       0.018848626 0.2404329 -0.24539024 -0.07868993
000090 f0 ab a5 be 46 e7 20 3e be 32 66 be e8 69 2a 3e
       -0.3235774 0.15713224 -0.22480294 0.16641963
0000a0 2a 15 85 be d8 ea 7f 3e 28 b2 ce 3e d8 73 24 be
       -0.2599271 0.2499193 0.40370297 -0.16059816
0000b0 08 a2 34 bc b9 ec 54 bf 77 04 69 be 7b dd 0a bc
       -0.011024959 -0.8317371 -0.2275561 -0.008475657
0000c0 45 18 b9 be 84 7b af bd 0d 7d 37 be 6f df 5f 3d
       -0.3615133 -0.085684806 -0.17918797 0.054656442
0000d0 0b b5 4e 3c ce 29 cc 3d f4 29 f2 be ff c9 2b bc
       0.012616406 0.09968911 -0.47297633 -0.010485171
0000e0 45 b9 aa 3d 5d b5 19 bf 58 6d 8f bd 5c 9b 01 be
       0.083361186 -0.60042363 -0.070032775 -0.12656921
0000f0 76 c5 cd bd 16 fc 6c 3e af d5 11 3d c2 1c 47 3e
       -0.10047428 0.23143038 0.035604175 0.19444564
000100 af 2e 3b 3e 11 28 cd 3d 97 7b b4 3d 42 7d b2 be
       0.18279527 0.10017408 0.088126354 -0.3486119
000110 7b 7d 91 3d eb 0c 4c 3e 95 4e 52 be 83 75 6d bd
       0.071040116 0.19926803 -0.20537789 -0.057973396
000120 34 25 4d 3c bb 6e 26 be 83 f9 d9 3c 80 4a d3 3e
       0.012521077 -0.16253178 0.026608234 0.41267776
000130 bc bc 76 be 48 54 4a 3d c3 0c 01 3e 3f cb 25 be
       -0.24095434 0.049396783 0.12602524 -0.16190813
000140 aa ec c4 3d 36 a9 03 3d f1 79 1e be ba 45 81 3d
       0.096154526 0.032143794 -0.15476204 0.063121274
000150 bb 89 bd bd 74 53 ba bd 02 a6 21 3e 71 fb 97 bc
       -0.092547856 -0.09097949 0.15785983 -0.018552514
000160 4b 85 68 bc 4f 81 80 3d 77 b2 8c bc ba 5f 46 be
       -0.014191936 0.06274664 -0.017174942 -0.19372454
000170 bb da 7d 3d f5 f9 6e bd 3f 4c 20 be 8a fc 8c 3e
       0.061976176 -0.058343846 -0.15654086 0.27536422
000180 b3 ac 40 be 8e 09 24 3e e8 26 6d 3d 98 3c 68 3e
       -0.1881588 0.1601927 0.057898432 0.22679365
000190 0e b7 2c 3c dc 43 4d bc d3 db 4f 3e a4 b6 97 bd
       0.0105416905 -0.012528386 0.202987 -0.07407883
0001a0 a6 3c bf be 12 53 90 be 36 9b 0a 3d 50 e1 e9 bd
       -0.3735096 -0.28188378 0.033839427 -0.11419928
0001b0 c6 a6 42 bd 3b 2c 1d be 26 90 e8 bd ed ec a2 bd
       -0.04752233 -0.15348904 -0.11355619 -0.07955346
0001c0 b5 2a 17 3e 1a 93 85 3d b6 eb 32 bd b5 37 50 3e
       0.14762385 0.06522198 -0.043681823 0.2033375
0001d0 81 09 9a bd 64 3c f8 bc 43 f0 77 be 38 41 44 bd
       -0.07521344 -0.030302234 -0.24212746 -0.04791376
0001e0 94 ba 55 be b4 f9 92 3d 61 6e 24 3e 9e b5 86 3c
       -0.20871955 0.07176533 0.16057731 0.016444024
0001f0 06 c1 47 be 33 0a c3 bc 05 cc 38 be f5 b7 ca be
       -0.19507226 -0.023808574 -0.18046577 -0.39593473
000200 5c 80 1a be 64 36 45 be 3e 85 57 be cf 4c 00 be
       -0.15088028 -0.1925903 -0.21046922 -0.125293
000210 d7 a3 12 be 79 e6 4b 3e 00 83 b3 be b6 db c7 3d
       -0.14320312 0.19912137 -0.35060883 0.097587034
000220 d8 df 43 3b 3b 92 f8 be 5a 21 c7 bd 1d 9c 51 be
       0.002988806 -0.48549065 -0.09723158 -0.20469709
000230 6f b1 58 3d 49 2a 3b 3d e5 51 04 3d fc 36 90 3d
       0.05290359 0.045694623 0.032304663 0.070417374
000240 aa dc 1d be 94 2a 4a be af 0e 80 be 45 4c 39 be
       -0.15416208 -0.19742805 -0.25011203 -0.18095501
000250 40 8c fe bd b0 53 1f bc bd 61 e9 bd fb 0e 76 be
       -0.12429094 -0.0097245425 -0.11395595 -0.24029152
000260 ec a7 ca be 6d 03 ee 39 55 f7 fe 3d 72 62 59 bc
       -0.3958124 0.0004539745 0.124495186 -0.0132681
000270 27 7e 99 be 1c 0e c8 bc d9 8b 09 3d d0 dc 33 be
       -0.2997906 -0.02442079 0.033580635 -0.17564702
000280 14 60 ab be 65 b0 a2 be 20 0f a1 be d9 34 c7 bd
       -0.3347174 -0.31775203 -0.31456852 -0.09726877
000290 0e 56 97 3d d8 88 c0 3d c5 84 b6 bd 4e fb 05 be
       0.073894605 0.09401101 -0.089120425 -0.13084146
0002a0 f4 0f 16 be 53 40 9a bd 67 2f 18 be a2 07 48 bd
       -0.14654523 -0.075318 -0.14861833 -0.048835404
0002b0 e1 e5 82 be f3 82 95 be 12 7d 26 be 06 a9 c7 be
       -0.2556601 -0.2920147 -0.16258648 -0.38996142
0002c0 22 5a 4b 3e 00 0f a3 bd c4 a6 c1 be 5c ec 23 3e
       0.19858602 -0.079618454 -0.37822545 0.16008133
0002d0 86 83 10 be 4f f2 f7 bd 6e be 4f bd f8 ad a6 be
       -0.14112672 -0.121067636 -0.050718717 -0.32554603
0002e0 4e 05 be 3d fc 00 6e bd 23 70 0d bd ac b6 63 3d
       0.092783555 -0.058106408 -0.03453077 0.05559413
0002f0 f6 28 6d be c4 76 50 be af e7 98 3e ac e7 bc bd
       -0.23160157 -0.20357805 0.2986426 -0.092238754
000300 1b 38 b4 3d 52 14 68 bd 67 30 e9 3c db 40 ac be
       0.08799764 -0.056660004 0.028465463 -0.3364323
000310 2e 27 41 3d f4 8f 0c be 4f 1d d0 bc e6 0d e6 3d
       0.047156505 -0.13726789 -0.0254046 0.1123312
000320 80 ad 70 be 36 c9 aa bd 89 6b d9 bd bb 5c ce bd
       -0.23503685 -0.08339159 -0.10616214 -0.10076281
000330 73 56 59 bd f4 f5 96 be f9 24 d9 3e fd 96 1c 3e
       -0.05306096 -0.29484522 0.4241102 0.15291972
000340 11 b5 0b be 26 79 e3 be 1f 58 1f 3e 54 f7 f8 bd
       -0.1364329 -0.44428366 0.1556096 -0.12156549
000350 92 72 38 3c 5d 4b 36 bd 31 cf ba bc 2a 7c 8c 3d
       0.011257784 -0.044505466 -0.022803875 0.0685962
000360 9d f5 1c 3e 0f ce c6 bd 9e 39 ba bc b3 a9 a6 3d
       0.15328069 -0.09707271 -0.022732552 0.08137836
000370 95 29 30 be dd f0 f1 be da ab b3 3e 73 54 76 3e
       -0.17203362 -0.47254077 0.3509205 0.24055652
000380 bb ca 01 be 65 1b 05 bc e4 76 97 3d 9d ad 93 3d
       -0.12674992 -0.008124207 0.073957235 0.072108485
000390 2e 13 91 bd 98 26 f2 3d 48 63 ec 3e d2 4a 38 bd
       -0.07083736 0.118237674 0.46169496 -0.04499323
0003a0 ef e2 92 be 37 db 3d 3e bf 1b bf 3d cf 9e 35 3c
       -0.28688762 0.18540655 0.09331464 0.011085226
0003b0 88 19 e6 bc c8 c0 25 3d 1f 88 04 3e c3 d4 80 3d
       -0.028088346 0.040467054 0.12942551 0.06290581
0003c0 76 a7 5e be 82 81 2c 3e ff 50 06 be ec 6d 26 be
       -0.21743569 0.16846278 -0.13116835 -0.1625287
0003d0 c2 55 15 3e 24 79 df 3d 55 50 58 be fb 40 2b bd
       0.14583495 0.109117776 -0.21124394 -0.041810017
0003e0 65 0d bc 3c 8c 2b 89 be 6f cc 11 be 8a 05 5a be
       0.022955606 -0.26791036 -0.14238141 -0.21291175
0003f0 78 d5 ba bd b2 82 9e bc 0b 66 8c 3d cf 55 3a 3e
       -0.09122747 -0.01934943 0.06855401 0.18196796

fc2.bias f4 [64]
000000 96 1c 85 bd b9 e5 15 bc f7 6a 79 3d bd 15 30 bd
       -0.06499593 -0.009149008 0.060893025 -0.04298948
000010 e6 6d fd 3d 70 7a 03 be ad 22 38 3d df 83 eb bc
       0.12374477 -0.12839675 0.044954944 -0.028749404
000020 4a 3c a5 3e 1c 21 0e 3f 28 65 36 be 18 05 42 3e
       0.3227256 0.5551927 -0.17812026 0.18947256
000030 65 29 a3 3e a1 14 b6 bd d5 63 13 bd a2 b5 4d bc
       0.3186752 -0.088906534 -0.03598388 -0.012555512
000040 8b e3 2e 3d 5e 0f 1b be c1 ac 50 bc 2e 7b 63 3e
       0.04269747 -0.15142581 -0.0127365 0.22214958
000050 72 73 59 3e 5d 51 18 3f 85 1f 25 be 61 5d 19 bd
       0.21235445 0.5949915 -0.16125305 -0.03744257
000060 ea c6 bd 3d d9 f8 81 bd 81 b1 b4 3b a2 65 58 be
       0.092664555 -0.06346292 0.005514324 -0.2113252
000070 04 35 87 bd 5c 66 05 3e 10 b4 86 3d 60 e6 52 be
       -0.06601909 0.13027328 0.06577313 -0.20595694
000080 1d 8b 28 bc 96 d3 13 3e c0 8f 99 3d 29 ae 97 3d
       -0.010287073 0.14436182 0.07498121 0.07406265
000090 fe 4c d6 bd c7 b1 d6 bd f8 22 80 3d 76 c7 54 3c
       -0.10463904 -0.10483127 0.0625667 0.012987008
0000a0 bf 90 e4 bd 8c c3 0a 3f ef cb 00 3f 6b 9a d7 bd
       -0.111604206 0.5420463 0.5031118 -0.105275
0000b0 e9 30 7d bb c0 e0 35 bb 9c 89 1c 3e d4 7a 25 bd
       -0.003863389 -0.002775237 0.15286869 -0.04040034
0000c0 7f 58 87 3d 77 ac 4f be 6f 8a e6 bd 9f d8 99 3e
       0.06608676 -0.20280634 -0.11256873 0.3004808
0000d0 b4 e8 ed bd 07 a5 a0 bd 4a 03 0b 3e 10 11 20 3e
       -0.1161665 -0.078439765 0.13575473 0.15631509
0000e0 b7 47 05 be 0b 52 62 bd cc 12 de 3c d6 d5 c6 bd
       -0.13015638 -0.055254024 0.027108572 -0.09708755
0000f0 62 b4 d6 bd 6e b1 26 3e 4c 77 bb 3d 30 ee 03 be
       -0.10483624 0.16278622 0.091536134 -0.1288383

fc3.weight f4 [4, 64]
000000 ed 28 97 be fe f7 0a 3e b9 cd 03 be 5f 11 ac bd
       -0.2952341 0.13571164 -0.12871446 -0.08401751
000010 44 42 fb 3e 6a c8 d5 3e 43 76 75 3e 7d 53 81 be
       0.49073994 0.41754466 0.23970895 -0.2525901
000020 b0 ca 49 3e f2 a4 3c 3e 62 9c db bd ae 91 cb 3d
       0.19706225 0.18422297 -0.10723187 0.099398956
000030 93 ec 4f 3e 1b a5 b6 be 14 2b d1 bd 53 31 0a be
       0.2030509 -0.3567284 -0.102132946 -0.13495378
000040 01 90 f7 3d 1a c7 e5 3c 37 5e 92 be 60 8b 71 3e
       0.120880134 0.02804904 -0.28587505 0.23588324
000050 08 6c 4f 3d bb 3a 59 3e 9d c1 da bc e4 1f e8 3d
       0.050640136 0.2121381 -0.02670365 0.11334208
000060 21 af e4 3d d4 50 5d be 55 3e d5 be 8f aa 99 be
       0.11166216 -0.21612865 -0.41649118 -0.30012938
000070 75 a3 b7 be a3 73 aa 3c e4 26 97 be 3f c5 8b 3e
       -0.35866895 0.020807093 -0.2952186 0.27298924
000080 8a e9 c2 3e 6b 47 81 3e 18 22 82 3d a3 db be 3d
       0.380688 0.252498 0.06354159 0.09319236
000090 91 a5 fc 3e 08 a9 4b 3e 89 b5 a2 be 71 c8 38 3e
       0.49345067 0.19888699 -0.31779125 0.18045212
0000a0 36 4b 8c be eb c5 3e 3e 88 02 22 3e 56 97 6d 3e
       -0.2740113 0.18630187 0.15821278 0.23202261
0000b0 f6 dd 91 3e d6 8e b0 3d 5b 2f 55 3e c5 4a e8 3e
       0.28489655 0.08620994 0.20818846 0.45369545
0000c0 a5 ff 08 3d 82 1d 12 be ac 9d 86 bd 94 e3 d6 3e
       0.033446927 -0.14269069 -0.06573042 0.41970503
0000d0 b4 43 fb bd fd 47 1f be c3 97 c6 3c d2 a0 8a 3e
       -0.12268773 -0.15554805 0.024242288 0.2707582
0000e0 e6 6d 88 be 31 be b3 bb 77 a4 55 3e d6 1e e7 3d
       -0.26646346 -0.005485319 0.2086352 0.11285178
0000f0 ae 34 95 be 24 0a e5 3e 81 d2 f8 3c 51 8f ab bd
       -0.29141754 0.447343 0.030373814 -0.08376945
000100 da b3 1d be 08 80 1e 3e 82 0f df 3e 07 aa 27 3e
       -0.15400639 0.15478528 0.4356652 0.16373454
000110 bc fb 10 3f bc ca ba 3e 49 da 89 3e 70 7b a5 bc
       0.56634116 0.364828 0.2692435 -0.020200461
000120 6d d4 78 3e 87 f2 30 3e a3 12 53 bd c8 72 15 3e
       0.24299784 0.17280017 -0.051531445 0.14594567
000130 7b d4 6b 3e f8 6c 8d bd c3 0c 15 bd 98 38 04 3e
       0.23030274 -0.0690555 -0.036389124 0.12912214
000140 b9 90 09 3e 6d 46 1d 3e 4a be 8d be c7 d7 45 3e
       0.13434114 0.15358897 -0.27684242 0.19320594
000150 9b b9 0f 3e f8 b3 5c 3e 09 cf ee 3a 2e fa f2 3e
       0.14035647 0.21553028 0.001821966 0.47456497
000160 ca f2 50 3e 4b 92 a8 bd d2 00 19 be f7 22 a9 be
       0.20405117 -0.08231028 -0.14941719 -0.3303449
000170 e5 c2 ae 3e f8 34 c3 3d ea a5 62 3c 46 7d ce bc
       0.34133068 0.09531587 0.013833502 -0.02520622
000180 56 5b 69 3e 70 45 7a 3e d9 ad 0b 3e de 00 24 3e
       0.22788748 0.24440551 0.13640536 0.16015956
000190 03 b2 c6 3e 49 8c 7b 3e aa fa be 3e 93 79 4d 3e
       0.38807687 0.24565233 0.37300617 0.20065908
0001a0 95 1a 11 be 43 98 2b 3e 88 7e fc 3d 24 cd 1b 3e
       -0.14170296 0.16757302 0.123288214 0.15214974
0001b0 3a a3 bd 3e 7f 88 43 be d8 29 2c 3e c5 e0 ad 3e
       0.37038594 -0.19095038 0.16812837 0.33960548
0001c0 df 44 0f 3e 95 1e fe bd 32 a9 b3 3d f4 e3 a3 3e
       0.13991116 -0.12408177 0.08772506 0.32009852
0001d0 33 4c c3 be 1d 8d 0d be 9a e4 12 3d 6b 86 77 3e
       -0.38144073 -0.13823362 0.035862543 0.2417237
0001e0 2e 7e 45 be 30 0f 3b bd fd ac 8e bc 8d 3f 8c bd
       -0.19286415 -0.04566878 -0.017416472 -0.06848059
0001f0 98 8d 6b be e3 ae da 3e 4a c0 9f be a6 5b b9 bd
       -0.23003232 0.42711553 -0.31201392 -0.09050684
000200 23 9b a8 be cd 01 32 3e 6f 9f 54 3d 0f d4 9d 3e
       -0.3293086 0.173835 0.05190986 0.3082585
000210 73 8f f0 3e a5 92 bf 3e e7 e8 44 3e 1d f3 e8 3c
       0.46984443 0.37416568 0.1922947 0.028436238
000220 69 ad 0b 3e de 74 1f 3e 99 37 01 be 68 fc b2 3e
       0.1364037 0.15571925 -0.12618865 0.34958196
000230 f8 8b 81 3e 65 0f 5e 3d 08 8a d0 3e 47 3e 3b 3e
       0.253021 0.0542139 0.4073031 0.18285476
000240 9a e7 cd 3e 7e 46 04 3e 1b 67 b0 be b7 fa 11 3e
       0.4021576 0.12917516 -0.34453663 0.14255796
000250 91 e0 bf 3d da 8c 54 3e 84 7e d0 bd 9d fe e7 bd
       0.093690045 0.20756856 -0.10180381 -0.113278605
000260 78 4d 8b 3e 60 96 24 be 8c 1b 25 be e8 b4 bc be
       0.2720754 -0.16072989 -0.1612379 -0.3685677
000270 15 ab 13 bd 96 03 96 3e ac dd 79 be a3 49 a1 be
       -0.03605183 0.2929961 -0.24400967 -0.31501493
000280 d4 90 41 be ac 83 fb 3c 7a 24 c6 3e 4c 21 a2 3e
       -0.18902904 0.030702434 0.38699704 0.31666028
000290 78 79 bf 3c d3 c5 51 3d 25 78 06 3e 25 6f 38 3e
       0.02337335 0.05121405 0.13131769 0.18011148
0002a0 f2 d7 60 3e 2f 1e 54 3e 6d 1d 5b 3e d3 9b 75 be
       0.21957377 0.20714639 0.21397944 -0.23985223
0002b0 4d bc 4d 3e 71 2e 18 be a3 ef 29 3e f6 58 5f 3e
       0.20091362 -0.14861466 0.1659532 0.2181128
0002c0 87 bd 80 3e ca 81 f3 3d e2 90 b6 3e e4 e7 a6 3e
       0.25144598 0.1188999 0.35657412 0.32598794
0002d0 b9 67 41 bd fc b1 30 be 75 f9 9e 3c 9a 4a 84 3e
       -0.04721806 -0.17255396 0.01940606 0.25838166
0002e0 38 a8 72 be 57 7a 0c bf 48 18 a4 3d 14 9c ba 3e
       -0.23696983 -0.54874176 0.08012444 0.36447203
0002f0 de de be bd 75 04 97 3d b0 ac dc be d6 07 9c be
       -0.09319852 0.07373897 -0.431005 -0.30474728
000300 82 9e ce 3d 85 98 bf 3e 8c 5e 64 3e 17 cc b2 be
       0.10088827 0.3742105 0.22301692 -0.34921333
000310 3b 4f a5 3e ce 39 cd 3e 79 4f e4 bd 91 81 4b be
       0.3228701 0.40083164 -0.11147971 -0.19873644
000320 4f 46 d9 3d 35 83 4f 3e e9 8c 8b bc f4 e3 22 3e
       0.106091134 0.20264895 -0.017034965 0.1590727
000330 fc 42 a5 3e 34 a5 6c 3c c1 dc 94 3e 73 4d a1 bd
       0.32277668 0.014443684 0.29074672 -0.078761004
000340 b5 86 b1 3e e4 f9 e7 3d 0f 9d 73 3d 03 21 4b 3e
       0.34673086 0.1132696 0.059475955 0.19836812
000350 8f 47 53 3d 12 cb 77 3e e5 f7 84 be 3f 35 66 3f
       0.051581915 0.24198559 -0.2597038 0.89925
000360 a8 ea 16 3e 44 d8 b0 be 3c fd 0e be fc 44 79 3d
       0.14737952 -0.34539998 -0.13963789 0.060856804
000370 36 9c cf 3e 8c d4 86 3c 0e 81 a6 be f8 f9 94 3d
       0.40548867 0.016458772 -0.32520336 0.0727424
000380 47 94 d8 3e 64 3c 46 3e 1f 6b 1b 3e a5 7b 08 3e
       0.42300627 0.19358975 0.15177582 0.13328417
000390 7c e4 98 3e 1b dc ef 3e 10 c1 8a 3e a4 db 36 3e
       0.2986182 0.46847615 0.2710042 0.17857224
0003a0 43 2f f4 be 42 96 51 3e a4 58 34 3e c6 f1 ad be
       -0.47692308 0.20467475 0.17611939 -0.3397352
0003b0 71 ba 9e 3e e2 73 f0 bd 54 ce ea 3d 13 89 d0 3e
       0.31001619 -0.11740853 0.11465135 0.4072958
0003c0 bc 55 b2 3d e4 a9 3d bd 98 3d f6 3e 44 7c 8b 3e
       0.08707759 -0.0463046 0.48093867 0.27243245
0003d0 1b a9 8c 3e 86 e9 6c 3d 1c 65 20 3e c1 06 ab 3e
       0.27472767 0.057839893 0.1566357 0.3340359
0003e0 d3 ef 0a be 53 be 81 be 39 1d 39 be d3 0d 4f 3b
       -0.13568048 -0.25340518 -0.18077554 0.0031593933
0003f0 d6 52 56 be d3 05 bc 3d 9c e8 13 bf 83 6b 11 3d
       -0.20930037 0.091807984 -0.5777681 0.03550292

fc3.bias f4 [4]
000000 5f 7f bb 3e 42 df 87 3e a2 2a 7d 3e 27 83 7e 3e
       0.36620614 0.2653752 0.24723294 0.24854718
