checkpoint_doubleQ-500.pth (torch_old, 28345 bytes, 6 tensors)

fc1.weight f4 [64, 37]
00000000: c818 c33d b9e8 fb3b 7e26 a9be b9cc 34be
00000010: 9668 28be b938 6e3d ca2e 873d 4e26 cc3d
00000020: b1f6 56be 5c62 e0bd 9f9e 1abe 3994 083d
00000030: f7e5 c83b 84ba b6be a392 91bd 9b38 903c
00000040: 7423 903d 52a3 15be 1f08 36bc 32c0 94be
00000050: 28f0 3b3e b4ad 22bd 26c7 bfbd 4bed 88bd
00000060: aa96 95be 864a 06be 3a14 5a3e dbce f4bd
00000070: faa2 67be 1777 d2bd 8b60 8fbd ae60 85bc
00000080: b753 213d 20ef d1be 2e16 edbe 4329 b6bd
00000090: e2ed 4cbd 7c64 713e a2b4 36bd 2046 7e3d
000000a0: 34a2 bdbb 14e5 c5be 2874 c93d 6740 83bd
000000b0: 45a9 7abe edd2 92be 0897 e3be 6f2c a23c
000000c0: d349 f2bd d5d3 5b3d 6ae5 453e db00 483e
000000d0: 2b7b d9bc 42ee 18bd ad5b 2f3e e57a db3c
000000e0: a53f 7f3d d261 6bbc d7fd edbd 2e0a 4bbe
000000f0: 6c62 6ebd dcea 20bd 57cc af3c 2dbf ff3c
00000100: b10c 4dbd 4145 54be 8f7b 0bbe e0e5 e33d
00000110: d2e9 453e 0660 b03c 8bf2 cdbc 44ff 8dbe
00000120: 5ddc d13d 5a99 543c eb53 49be fac4 923e
00000130: 4bff f03d 4257 293e 2b93 1bbe fb00 c8be
00000140: 9c5b 243e eecd 923e 8627 9f3d f865 20be
00000150: 4a25 8e3b f6a5 e5bc 1d2e 7e3d 9b48 043e
00000160: d8c4 4e3e 6aae 30be b70a 1e3e 1f86 893d
00000170: 9282 3b3e 18b1 49bd d247 25bd 8c84 03be
00000180: 2f60 3e3d 8e9c 063e b553 e23d 614b 00bf
00000190: f74c 843e 0abb 813e 9c4c e63d 0937 a0be
000001a0: 234c 71be 1a1a b9bb 5579 1a3d 3784 59bd
000001b0: 85f2 173d d936 e0bc 4680 563a bc1d 843b
000001c0: 8544 c63c 32e9 1c3e d1f7 4c3d 2616 693d
000001d0: 4c57 49be 9378 f639 79ed a33d 5630 2e3e
000001e0: a1e1 c83d 9562 ba3c e4c5 0a3c ca64 7b3d
000001f0: 5254 89bd 83d1 1abd 7d01 0bbd 494b f2bc
00000200: 65c8 8ebd 6471 2ebe 5e14 bbbd adb8 9f3e
00000210: f1a1 b6be 1b8d dfbd ac50 cfbe bbe7 b0bf
00000220: 81b7 dcbc 3fd6 503d ecb1 9e3d c8b8 a33d
00000230: 10e2 8c3e 870e 88bc 1afd 953d 743d f53d
00000240: e14d dd3d 4b28 e8bb e385 0f3c 3b5d a9bb
00000250: e977 99bd 4e52 05be 4d78 bcbd 1ef3 41be
00000260: 1b4e fc3c c96b 503e b7b2 663c 6970 81be
00000270: 9fd6 083d d7b1 48be 3049 403e 1e27 8bbd
00000280: 01c4 f3bd d0bd 85be b08c 97be a2ef 8ebd
00000290: 8a65 05be cdd7 b7bd 6be7 853d 0e11 2c3e
000002a0: 0368 b8bc c66f edbd f046 b33c a2e4 4f3d
000002b0: 9928 333e bc14 a83d 2c55 8ebd df19 ffbc
000002c0: 1e57 013e 5969 9abe 78af 313e a1f0 85be
000002d0: 4a2f cd3d 3304 afbd b9c9 153e 6290 fa3b
000002e0: 0341 1a3c 3405 2a3d d42b 48bd 6068 193d
000002f0: 7634 e33c 245b 0b3e 44dc bd3e 9f28 393c
00000300: 764b f4bd 1b9e f4be 7aa9 b7bf 9cd0 82bd
00000310: fc9b a2bc 265c f8bc 6513 e73c fed3 f73d
00000320: 610a 1e3d f6b6 9c3d 5d58 31bd ef34 2abd
00000330: e54e 86bd e57c 423e a02b c83d 0f3c 2e3d
00000340: 0d06 2b3d 1db5 a03d 96b2 093d 11f5 b3bd
00000350: fa33 1f3d c84b 113e 495a 19bd 9d90 1f3e
00000360: d754 04be 4729 28bd 8076 ebb5 a793 9ebc
00000370: b24f f23c 794d 413c b374 b7bd 70c6 d23b
00000380: 6141 cfbc 6d70 d33a 4e59 b5bc 30c5 d0bd
00000390: 9573 cebc dd6b f7bd ada9 393e 88cc 0b3f
000003a0: 9c4a 4bbd c17e f33c ce55 743d d38e 0e3e
000003b0: c74a 023d 4875 2fbc 63e0 85be 3908 123e
000003c0: b949 b23d a613 873e 70b4 2abe 19cc c43c
000003d0: 2148 d03d 02c8 cc3c 5f1b 793e 6cb4 5dbe
000003e0: 9d87 bdbd 4852 7f3d 80c3 9f3c 6403 723e
000003f0: 2d2e b8bc e1cc 8bbd 32d6 9ebc 8474 de3d
0.09526211 0.007687655 -0.3303718 -0.1765622 -0.16446146 0.058159564 0.06600721 0.099682435
-0.20992543 -0.109562606 -0.15099572 0.03334448 0.0061309296 -0.35689175 -0.07108047 0.017605117
0.07038012 -0.14613083 -0.011110335 -0.29052883 0.18353331 -0.039716437 -0.093641564 -0.06685885
-0.2921651 -0.13114366 0.21296778 -0.11953517 -0.22620764 -0.10276621 -0.07000836 -0.016281452
0.039386477 -0.4100275 -0.46305984 -0.08894589 -0.05003155 0.23573488 -0.04460586 0.062078595
-0.0057871584 -0.38651335 0.09836608 -0.06408768 -0.24478634 -0.2867655 -0.44451165 0.019796578
-0.11830487 0.053668816 0.19325796 0.19531576 -0.026547989 -0.037336595 0.17124815 0.026792
0.062316556 -0.014366584 -0.11620682 -0.19828102 -0.05819933 -0.03928648 0.021459742 0.03121909
-0.05006093 -0.20729543 -0.13621353 0.111278296 0.19327477 0.021530163 -0.025140068 -0.27733815
0.10247109 0.012976015 -0.19660918 0.28665906 0.11767443 0.16537192 -0.15192859 -0.39063248
0.16050571 0.28672737 0.0777121 -0.15663898 0.0043379413 -0.028033238 0.062055696 0.12918322
0.20192277 -0.17254034 0.15433775 0.06715035 0.18311527 -0.049241155 -0.040351696 -0.12843531
0.046478447 0.13145658 0.11051122 -0.5011502 0.2583997 0.25338012 0.11245081 -0.31291988
-0.235642 -0.0056488635 0.037713367 -0.053104606 0.03709652 -0.027369903 0.00081825664 0.004031865
0.024202595 0.15323332 0.050041024 0.056905888 -0.19662207 0.0004701061 0.08004279 0.17010626
0.0980866 0.022752086 0.008470032 0.061375417 -0.06705536 -0.037797462 -0.033936966 -0.029576914
-0.06971816 -0.17035443 -0.09134744 0.31195584 -0.35670426 -0.109155856 -0.40491235 -1.3820719
-0.02694297 0.05098557 0.0774878 0.079942286 0.27516222 -0.01660849 0.07323666 0.11974612
0.1080587 -0.0070848814 0.008759948 -0.0051685846 -0.07493574 -0.13019678 -0.09202633 -0.18940398
0.030798962 0.20353617 0.014080695 -0.25281075 0.033407804 -0.1959909 0.18777919 -0.067945704
-0.11902619 -0.26121378 -0.29599524 -0.069793 -0.13027015 -0.089767076 0.0653828 0.16803381
-0.022510534 -0.11593585 0.021884412 0.05075515 0.17495956 0.0820708 -0.06949839 -0.031140266
0.12630889 -0.301585 0.17352092 -0.26160148 0.10018785 -0.08545723 0.14627732 0.0076466063
0.009414914 0.04150887 -0.048869923 0.037453055 0.027734976 0.13608986 0.37082112 0.011301189
-0.119284555 -0.47776875 -1.4348595 -0.06387445 -0.01984977 -0.030317377 0.02820749 0.12100981
0.038584117 0.076520845 -0.04329716 -0.041554388 -0.06558017 0.18992956 0.09773946 0.042537745
0.041753817 0.078470446 0.03361758 -0.08786977 0.038867928 0.14189065 -0.03743962 0.1558251
-0.12922989 -0.04105499 -1.7543352e-06 -0.019357515 0.029579017 0.011798256 -0.089578055 0.006432347
-0.02529973 0.0016131528 -0.02213731 -0.101938605 -0.025201598 -0.1208112 0.18131132 0.54608965
-0.0496317 0.029723527 0.059652142 0.1392167 0.031809594 -0.010709114 -0.26147756 0.14260949
0.08705468 0.26382178 -0.16670394 0.024023103 0.101700075 0.024997715 0.24326847 -0.21650857
-0.09254382 0.06233433 0.019502401 0.23634106 -0.022482956 -0.06826187 -0.019389246 0.10862067

fc1.bias f4 [64]
00000000: 599c f53d 78b1 04bd 2667 0ebe 37cc 89bd
00000010: d7e0 303e 00ff ae3c b88a dbbd 4ce7 ca3c
00000020: d3a7 50bd bf9d 6dbe b74b 0f3e af04 313e
00000030: d35f 4a3e 9448 963c 60f5 d8bc 3f5b 75bb
00000040: ae23 983d f443 243d b77d 0c3d d57e 06be
00000050: c7fa 10be 952f f23d 7d38 debc 1ceb afbd
00000060: 7112 33be d24f 0e3d b06f bbbd 4a86 1bbe
00000070: e7f7 163e 18e7 ad3d d59f c93c 65f0 21be
00000080: 70a0 193e 4daf 263c 64e7 f7bd 973f 4f3d
00000090: 1ede 5fbd 184f 843d 634e 983b dc67 cdbd
000000a0: 65eb 9cbd d7d1 11bb c36a 8cbd e4ad 1d3e
000000b0: f98f 963d 719b a5bd 8f36 323d 84fc 4dbe
000000c0: 0e48 20be c7a1 3e3c fc03 3bbe d88a 8f3d
000000d0: 5bc2 c1bb 0192 1bbd 4567 5cbe 897d ae3d
000000e0: 8cd6 1a3e d13c e6bd b53a 10be f62c fabd
000000f0: be35 7c3d b713 a33d 177d 5b3c 1b5a 81bc
0.119927116 -0.03239581 -0.13906536 -0.06728404 0.1727327 0.021361828 -0.10719818 0.024768494
-0.0509413 -0.23204707 0.13993727 0.17286943 0.19763117 0.018345155 -0.026484191 -0.003743842
0.0742868 0.040103868 0.03429958 -0.1313432 -0.14158164 0.11825482 -0.027126545 -0.085897654
-0.17487504 0.03474409 -0.09152162 -0.15187946 0.14743005 0.08491343 0.024612347 -0.1581436
0.15002608 0.010173631 -0.12104681 0.050597753 -0.054655187 0.064603984 0.0046480163 -0.10029575
-0.076620854 -0.0022250318 -0.06856301 0.15398365 0.07351679 -0.08086289 0.043509062 -0.20115858
-0.15652487 0.01163525 -0.18263239 0.07008904 -0.0059130616 -0.037981037 -0.21523769 0.08520038
0.15120906 -0.112420686 -0.14084895 -0.12215607 0.06157469 0.07962745 0.013396523 -0.015790036

fc2.weight f4 [64, 64]
00000000: 2287 a1bd 2073 b43d 6a17 a43e c93c c43e
00000010: 871f c43b 3a99 f4ba d0b1 52be d874 8cbe
00000020: 3dca 8d3e 0a71 edbd da9f d0bc 9c8f af3a
00000030: 64d3 93be 8fbc cabc d074 8ebd a9e9 9ebe
00000040: d9e9 94be 58a3 983d 7e92 38bd f8db e13d
00000050: c5b8 96bd 1e5d e3be 9458 be3d 1c2f 8bbe
00000060: d52c 0fbe 8b5b e83d af50 abbd 5d26 d63c
00000070: f8bf bf3d 54cc fe3d c41a 653e 2f02 27bf
00000080: b50d 25bd 8a3f 5d3e e14e 64be 44dd 76bd
00000090: aa90 bebe 1ae6 153e 39d5 aebd 59e6 073e
000000a0: a6ce 80be 7893 493e 24b3 973e e3a7 0fbe
000000b0: 4596 a73d c3f7 2ebf fd86 4abe fff9 11bc
000000c0: 5aa7 90be 216a aebd 6c6f 10be b88d d53c
000000d0: f80c 503d 83f1 083e 81bf a9be 7c0a f4ba
000000e0: 894b 2d3d 494a e3be 1419 76bd 361c 94bd
000000f0: 550d b1bd 73e6 7f3e e024 373d c6e6 0b3e
00000100: 00c9 c63d d20f d83d 0c51 f53c 9dd2 89be
00000110: bc6c a23d 0777 4d3e 6be8 4cbe 19a1 a33d
00000120: d102 38bd 0884 2cbe e4e4 8d3c b617 cf3e
00000130: a7da 3abe 1deb 4f3b b848 603e 7ca5 48be
00000140: cee1 0b3e dc24 553d f9bb 97bd ef1d 53bc
00000150: 140f ddbd a062 fabc dd40 2c3e d293 d8bd
00000160: 547b 76bc 5a40 b53d b3e2 1fbd 0933 3abe
00000170: f73a a13d 06ac 24bd 83d6 0dbe 2038 4e3d
00000180: b683 f4bd 4281 8d3d 30c5 d33d d70b 193e
00000190: 5003 52bc e5b1 bb3b 3d04 213e c56e 93bd
000001a0: 1fd0 b8be a08b 3fbe 5714 823d 65b4 ffbd
000001b0: 6ac6 08bd 34a3 6abe 5934 10be 2a6e 0fbe
000001c0: 2e59 deba 1571 af3d 29e8 d23b 40d9 333e
000001d0: f008 b3bd 2990 08bb dd70 39be 76a2 70bb
000001e0: 31d2 3dbe 4920 1f3d 9ed3 113e 021f 71bd
000001f0: 7975 39be 996c 58bd 9876 61be 35df d7be
00000200: 5c80 1abe 6436 45be 3e85 57be cf4c 00be
00000210: d7a3 12be 79e6 4b3e 0083 b3be b6db c73d
00000220: d8df 433b 3b92 f8be 5a21 c7bd 1d9c 51be
00000230: 6fb1 583d 492a 3b3d e551 043d fc36 903d
00000240: aadc 1dbe 942a 4abe af0e 80be 454c 39be
00000250: 408c febd b053 1fbc bd61 e9bd fb0e 76be
00000260: eca7 cabe 6d03 ee39 55f7 fe3d 7262 59bc
00000270: 277e 99be 1c0e c8bc d98b 093d d0dc 33be
00000280: 1460 abbe 65b0 a2be 200f a1be d934 c7bd
00000290: 0e56 973d d888 c03d c584 b6bd 4efb 05be
000002a0: f40f 16be 5340 9abd 672f 18be a207 48bd
000002b0: e1e5 82be f382 95be 127d 26be 06a9 c7be
000002c0: 225a 4b3e 000f a3bd c4a6 c1be 5cec 233e
000002d0: 8683 10be 4ff2 f7bd 6ebe 4fbd f8ad a6be
000002e0: 4e05 be3d fc00 6ebd 2370 0dbd acb6 633d
000002f0: f628 6dbe c476 50be afe7 983e ace7 bcbd
00000300: 25b4 13bd e3c0 16bd 1036 c03c 7140 71be
00000310: ad27 b4bb ee39 1ebe 687f 89bd 5ded afba
00000320: d458 74be e9af 56bd 4f18 33be b975 98bd
00000330: 66c3 ddbc 6841 51be c061 bf3e d00a bd3d
00000340: 8dd4 f2bd 17be 65be 77bf 833d 36e0 fbbd
00000350: 17b2 8b3b c524 a0bd 2b8b f7bd ea41 cb3d
00000360: adfe 393e 5741 eabc cd46 743c 6f12 773d
00000370: cad7 0ebe 4365 c5be c419 a13e 85bd 2d3e
00000380: 8aaa 83be 3d57 dfbc 52fb f33d a7f9 f53d
00000390: 8f27 c4bd 3ccf 0a3e 07fb d23e 1e44 bb3c
000003a0: 4b59 abbe 3a0f aa3d b518 803d f060 db3c
000003b0: 48b7 abbc c8e4 7b3c 96ac c13d a21b 493d
000003c0: 3bb2 70be d36f 333e 1c65 16be 104b 69be
000003d0: 9472 0b3e 6bee 133e f0a2 4bbe 8e7e 95bc
000003e0: d8e9 913c a354 34be 6234 2abe f3d5 26be
000003f0: db71 9fbd c5a7 80bb 6b06 acbb 02bc 833d
-0.07887103 0.08811021 0.32049114 0.38327625 0.0059852037 -0.0018661388 -0.20575643 -0.27432895
0.27693358 -0.11593826 -0.025466848 0.0013394239 -0.28872216 -0.024748115 -0.06955874 -0.31037644
-0.29084662 0.0745303 -0.04506158 0.11028284 -0.07359461 -0.4440698 0.09294239 -0.2718438
-0.13981946 0.113455854 -0.083649985 0.02614134 0.09362787 0.12441316 0.22373492 -0.65237707
-0.040296275 0.2160627 -0.22295715 -0.06026961 -0.37219745 0.14638558 -0.08536763 0.13271464
-0.2515766 0.19685161 0.2962886 -0.14028887 0.081829585 -0.68346804 -0.19778056 -0.008909701
-0.2825268 -0.08516336 -0.14105004 0.026068553 0.050793618 0.1337338 -0.33153918 -0.0018618847
0.042308364 -0.44392613 -0.06008251 -0.07231943 -0.08645121 0.24990253 0.0447129 0.13662252
0.097063065 0.105498925 0.029945873 -0.26918498 0.07930896 0.20064937 -0.20010535 0.07989711
-0.04492456 -0.16847241 0.017321058 0.40447778 -0.18247472 0.0031725832 0.2190274 -0.19594377
0.13660356 0.052037105 -0.074089 -0.012885555 -0.107938915 -0.030564606 0.16821618 -0.105750695
-0.015044052 0.08850165 -0.039034557 -0.18183531 0.07872575 -0.040203117 -0.13851361 0.050346494
-0.11939184 0.069094196 0.10340345 0.14945923 -0.012818173 0.005727994 0.15724273 -0.07198862
-0.36096284 -0.18705606 0.06351536 -0.124855794 -0.033392347 -0.2291382 -0.14082469 -0.14006868
-0.0016963833 0.085664906 0.006436367 0.17563343 -0.08741939 -0.002083788 -0.1810946 -0.0036717928
-0.18537213 0.03884915 0.14240882 -0.058867462 -0.18111219 -0.05283794 -0.22017896 -0.4216248
-0.15088028 -0.1925903 -0.21046922 -0.125293 -0.14320312 0.19912137 -0.35060883 0.097587034
0.002988806 -0.48549065 -0.09723158 -0.20469709 0.05290359 0.045694623 0.032304663 0.070417374
-0.15416208 -0.19742805 -0.25011203 -0.18095501 -0.12429094 -0.0097245425 -0.11395595 -0.24029152
-0.3958124 0.0004539745 0.124495186 -0.0132681 -0.2997906 -0.02442079 0.033580635 -0.17564702
-0.3347174 -0.31775203 -0.31456852 -0.09726877 0.073894605 0.09401101 -0.089120425 -0.13084146
-0.14654523 -0.075318 -0.14861833 -0.048835404 -0.2556601 -0.2920147 -0.16258648 -0.38996142
0.19858602 -0.079618454 -0.37822545 0.16008133 -0.14112672 -0.121067636 -0.050718717 -0.32554603
0.092783555 -0.058106408 -0.03453077 0.05559413 -0.23160157 -0.20357805 0.2986426 -0.092238754
-0.03606047 -0.036805045 0.023463279 -0.23559739 -0.005497894 -0.15451786 -0.06713754 -0.001342218
-0.2386201 -0.052413855 -0.17489742 -0.07444329 -0.027070712 -0.20435107 0.37379265 0.09230578
-0.11856947 -0.22435795 0.064330034 -0.12298624 0.0042631733 -0.07819513 -0.12087091 0.099246815
0.18163557 -0.02859561 0.014909458 0.060320314 -0.13949504 -0.3855382 0.3146497 0.16966827
-0.25716048 -0.027263278 0.1191317 0.12010508 -0.09577858 0.13555616 0.41207144 0.02285963
-0.33466563 0.083036855 0.062547125 0.026779622 -0.020961419 0.01537437 0.09456746 0.04909862
-0.2350549 0.17523126 -0.14687008 -0.2278254 0.13617927 0.14446418 -0.19886374 -0.018248823
0.0178117 -0.17610411 -0.16621545 -0.16292553 -0.07785388 -0.0039262497 -0.0052497885 0.06432344

fc2.bias f4 [64]
00000000: 0c9a 2abd f925 abbc f76a 793d 58f4 adbc
00000010: d54c d73d e2d4 fdbd afd4 453c 0d0d 21bb
00000020: 75a9 743e 7ce5 e53e 027a 07be 0ea4 253e
00000030: 0447 813e 0f65 90bd bcb6 16bd 482c c2bc
00000040: 5bde ab3c 5e0f 1bbe 4819 13bc b7dc 303e
00000050: 5ec5 0d3e 1ae7 f83e 7ff5 efbd 4307 f2bc
00000060: 4434 4d3d c8dd 6ebd e20d 023d 5bb0 26be
00000070: 789b 9abd 9665 eb3d c2fd 933d 344b 48be
00000080: 9427 01bc 00a4 f03d 8770 7c3d f428 963d
00000090: 1f59 f9bd 7256 f9bd bb52 953d 19b1 7bbb
000000a0: 986b f7bd 5590 de3e 8bdf cc3e d124 f8bd
000000b0: 10e3 99bc d20c d63c 5499 bb3d 7610 83bd
000000c0: 5813 393d 7d27 30be 9624 adbd 876a 793e
000000d0: a0b1 fcbd 8d54 ecbd 36eb a73d 77a8 843d
000000e0: aa13 ffbd 2388 c1bd a7e9 703c 304c ccbd
000000f0: 7f83 9fbd 41aa 033e 40ea 883d a1d8 a4bd
-0.041650817 -0.02089213 0.060893025 -0.021234676 0.105127014 -0.1239412 0.0120746335 -0.002457443
0.23892768 0.44901645 -0.13230136 0.16175863 0.25249493 -0.070505254 -0.036795363 -0.023702756
0.02098005 -0.15142581 -0.0089781955 0.17271696 0.13844821 0.48613816 -0.117167465 -0.029544478
0.050098673 -0.058316976 0.03175152 -0.16278212 -0.075491846 0.11493985 0.07226135 -0.19559938
-0.007882971 0.117500305 0.061630752 0.0733203 -0.121752016 -0.12174691 0.0729117 -0.003840512
-0.12081069 0.43469492 0.400143 -0.12116397 -0.01878503 0.02612916 0.091601044 -0.06399624
0.045184463 -0.17202564 -0.08454244 0.24357043 -0.12338567 -0.11539564 0.0819916 0.064774446
-0.124549225 -0.09449794 0.014704145 -0.09975469 -0.07788753 0.12857915 0.06685305 -0.08049131

fc3.weight f4 [4, 64]
00000000: a101 b0be 3651 2f3e b9cd 03be 7d9f f2bd
00000010: 29f0 fa3e 1038 de3e e1d7 803e cd3b 40be
00000020: 6bb3 383e 1d3b 1d3e 42ce e0bd 7ed3 9c3d
00000030: 61ea 543e 7f39 babe 1e42 09be eb57 00be
00000040: f4be e43d 1ac7 e53c 1305 53be 6541 7d3e
00000050: b908 593d 397e 2e3e c6b1 12bc 2f5a 3f3e
00000060: 1d8b e93d 294c 6dbe 0e37 a6be 7fbb 94be
00000070: 9983 9fbe a28a 2f3d f17c 59be ec18 0f3e
00000080: fc9a b53e 4a13 863e f68e 8d3d fbd6 c03d
00000090: 2c33 d23e f5cc 433e c850 4abe 36cc 323e
000000a0: 783d 62be b3ca 273e e9cb 0e3e d5e4 4d3e
000000b0: 8574 6f3e 97af b53c 5a82 573e 85ca d63e
000000c0: 9c7c 153d 60c5 35be ae8d cfbd 6dfc d03e
000000d0: 8883 97bd 889f 26be daf7 a63c 9620 963e
000000e0: e048 88be ee84 513c 3ea5 763e 91fa 033e
000000f0: e2c4 87be 66a1 ef3e b7a9 a73b f506 b2bd
00000100: 51ad 00be 1810 553e 820f df3e 3fef 543e
00000110: cd82 023f 5acf c73e eeb7 6b3e 0397 56bb
00000120: 3fcd 383e 2fb7 113e f07c 1abd 6d25 433e
00000130: 255a 5d3e 65bc 79bd 603a 533c 37ab 153e
00000140: 51ea 3b3e 6d46 1d3e 989d 8cbe d61c 3c3e
00000150: 2a81 083e 827b 3f3e 87bf 06bd b049 1d3f
00000160: 1b8a 233e 76e9 02be 38df eebd 2342 a9be
00000170: bcdc 8c3e dbf4 013e a3cd 5cbc 81b3 71bd
00000180: 46b3 333e fbd7 603e 86cc f93d 891e ab3d
00000190: dae8 d13e 3fd5 843e f21b db3e f912 053e
000001a0: 9f11 20be 5cfb 183e f8b2 c33d e024 593e
000001b0: ead1 b83e 27d1 35be ae51 203e df66 9e3e
000001c0: df40 c43d 300e fabd 8cbe 413d 5e8f 8d3e
000001d0: bceb adbe b66f c8bd 9137 803d 3dc5 8c3e
000001e0: 54ae 67be 191f 063e 879c 15bd e873 babd
000001f0: a02c 19be 09bb e53e 6938 2fbe 106c c3bd
00000200: 4782 93be bd9e 493e 6f9f 543d c6b3 5b3e
00000210: acc9 e43e 9c73 bc3e 3c21 433e 7338 37b9
00000220: ad71 0a3e c9e2 0d3e f6a3 fdbd 624c ba3e
00000230: bb14 573e 313b 42be 7d5b b13e 6fc0 c93d
00000240: 21e2 df3e 7e46 043e 66b0 bbbe e979 dc3d
00000250: 2575 a23d 9a63 3e3e 8c39 0abd eab3 02bd
00000260: 5eba 903e 5bcb 07be a6e5 17be b835 a4be
00000270: 41c4 42bd 3712 8f3e 308f 68be 0d4c b6be
00000280: 2c0d 11be 8e85 fd3c a9f2 ba3e 70f6 aa3e
00000290: 74d6 67bd 4aa9 fc3d ff47 d23d 184a 583e
000002a0: 9581 9b3e e580 433e 1176 443e 9440 4dbe
000002b0: 2352 9b3e c205 1bbd 69ba 1d3e 6a66 623e
000002c0: 1c37 723e 101a 083e b9c7 203e 2bfb b43e
000002d0: c9c9 43bd 94bf 0abc 4ee8 bb3c 3967 8a3e
000002e0: 311d 6ebe 7d34 e7be a880 ba3d 6942 a23e
000002f0: 05f7 03be e66d d33c 1c8e fbbe bc41 8ebe
00000300: b01e e43c 98ba a03e 8c5e 643e 3b72 adbe
00000310: b580 883e 6673 d33e 1731 febd b588 7fbe
00000320: 415f a83d 990c 3e3e eefe 2c3d 704d 393e
00000330: 2728 a13e cb1f e9bc 0faf b23e 1d57 c8bd
00000340: c7f6 ad3e e4f9 e73d 9c1c a83d 46dc 583e
00000350: e25c 1a3d da0e 643e 3308 67be cb53 593f
00000360: 50c7 5c3e 3836 94be 2f17 62be f714 ba3d
00000370: 03e9 be3e a9e9 88bc 38b6 d3be a91c 823d
00000380: 4db2 c63e 0018 513e 3eca 223e dd94 ab3d
00000390: c467 9a3e 5336 da3e a7f6 7b3e da1b 443e
000003a0: 04fa e9be 7d83 393e 0690 193e 120e e8bd
000003b0: 2d37 983e 0a64 33bd 54f0 fd3d 1ef3 da3e
000003c0: 6a86 923d 502f 01bd 912f a73e 54eb 853e
000003d0: 95f5 bb3e d495 0abd 0fe8 d33d aac9 a23e
000003e0: 7e4d 1cbe 0780 7abe 7f3f 01be 4502 f1bd
000003f0: 65e8 56be 119d d73d 8153 81be 3e89 60bc
-0.34376243 0.17120823 -0.12871446 -0.11846826 0.49011353 0.43402147 0.25164703 -0.18772812
0.18037193 0.15354581 -0.109768406 0.076575264 0.20792533 -0.3637199 -0.13404128 -0.12533538
0.11169234 0.02804904 -0.20607404 0.24731977 0.052986834 0.17040338 -0.008953517 0.18686746
0.11403487 -0.23173584 -0.32463878 -0.29049298 -0.3115509 0.04285682 -0.21239068 0.1397435
0.35469806 0.2618659 0.06912033 0.09416004 0.41054666 0.19121154 -0.19757378 0.17460713
-0.22093761 0.16385917 0.13944973 0.20106824 0.23384292 0.022178454 0.21045819 0.41951385
0.03649579 -0.17751074 -0.10134445 0.40817586 -0.073981345 -0.16271794 0.020381857 0.29321736
-0.266181 0.012788041 0.24086472 0.12888552 -0.26517397 0.46802825 0.005116667 -0.08692733
-0.12566115 0.2080692 0.4356652 0.2079439 0.50980836 0.39025384 0.23019382 -0.0032743819
0.18047045 0.14230035 -0.037716806 0.19057246 0.21616419 -0.060970683 0.012892336 0.14616095
0.18351103 0.15358897 -0.27463984 0.18370375 0.13330522 0.18699458 -0.0328975 0.61440563
0.15970652 -0.12784371 -0.11663669 -0.3305827 0.27512157 0.12691061 -0.013476762 -0.05900908
0.17548856 0.2195739 0.12197213 0.083554335 0.40997964 0.25943944 0.42794758 0.12995519
-0.15631722 0.14939636 0.0955562 0.21205473 0.36097652 -0.17755567 0.15656158 0.3093786
0.09582686 -0.12209737 0.04730086 0.27648443 -0.33968914 -0.09786932 0.062605985 0.2749423
-0.22625095 0.130978 -0.03652623 -0.091041386 -0.1495843 0.4486926 -0.17111363 -0.09542096
-0.2881033 0.1968946 0.05190986 0.21455297 0.44685113 0.36806953 0.19055647 -0.00017473269
0.13519926 0.13856043 -0.12384789 0.363864 0.21004002 -0.18967892 0.34640113 0.09851157
0.4372721 0.12917516 -0.3665802 0.1076544 0.079325 0.18592682 -0.033746287 -0.03190986
0.28267187 -0.13261168 -0.14833698 -0.32072234 -0.047550444 0.27943584 -0.22710872 -0.35604897
-0.14165181 0.030947473 0.3651326 0.33391142 -0.056601003 0.12336977 0.102676384 0.21122015
0.303723 0.19092138 0.19185664 -0.20044166 0.30336103 -0.037847288 0.15403141 0.2210938
0.23653835 0.13291192 0.15701188 0.35347876 -0.04779986 -0.008468527 0.02293792 0.27031878
-0.23253323 -0.45157233 0.091065705 0.31691292 -0.12887199 0.02580924 -0.49131858 -0.27784526
0.027846664 0.3139236 0.22301692 -0.33876213 0.26660696 0.4129898 -0.12411707 -0.24954493
0.08221293 0.18559493 0.042235307 0.18095946 0.31475946 -0.028457543 0.34899184 -0.097822405
0.3397734 0.1132696 0.08208582 0.21177778 0.037686236 0.2227129 -0.22561722 0.8489348
0.21560407 -0.28947616 -0.22079156 0.0908603 0.3728715 -0.01671298 -0.4134996 0.06353123
0.38807908 0.20419312 0.15897462 0.08378003 0.30157292 0.4261957 0.24605809 0.1915125
-0.4569856 0.18116565 0.14996347 -0.11330809 0.29729596 -0.043796577 0.123993546 0.4276361
0.07154544 -0.03153926 0.32653478 0.26156104 0.36710802 -0.033834293 0.10346996 0.31794482
-0.15263936 -0.24462901 -0.12621878 -0.11768011 -0.20987089 0.10528005 -0.2525902 -0.013704596

fc3.bias f4 [4]
00000000: 9ced 903e 0eb0 653e f206 443e a458 343e
0.28306282 0.22430441 0.19143274 0.17611939
