checkpoint_doubleQ-2000.pth (torch_old, 28345 bytes, 6 tensors)

fc1.weight f4 [64, 37]
0	0x3e79eca8	0.24406683
1	0xbf078095	-0.52930576
2	0xbed67773	-0.41888008
3	0xbe9e80d4	-0.30957663
4	0xbfc56192	-1.5420401
5	0x3d1859c1	0.03719497
6	0xbd4cb06e	-0.049972944
7	0x3eb0b184	0.34510434
8	0xbcc31874	-0.023815371
9	0xbf4f8f9d	-0.8107851
10	0xbdf51201	-0.119663246
11	0x3ca94401	0.02066231
12	0xbdcd65d2	-0.10029186
13	0xbdf9de74	-0.12200633
14	0xbe5f7c76	-0.21824822
15	0x3e18d1c4	0.14923769
16	0xbd19af80	-0.037520885
17	0xbdccdde3	-0.10003259
18	0xbf1bf328	-0.609179
19	0xbf968b39	-1.1761237
20	0x3d409d6a	0.04702512
21	0x3eb2125c	0.34779632
22	0xbdf3cf7e	-0.1190481
23	0xbe5cb5bf	-0.21553706
24	0xbfe2827d	-1.7696072
25	0xbdf4face	-0.119619
26	0x3c40e04c	0.011772227
27	0x3eb18615	0.3467261
28	0xbec86f00	-0.39147186
29	0xbf3d172e	-0.73863494
30	0xbd7aa5ee	-0.0611934
31	0x3d8e39ab	0.06944593
32	0x3e751b03	0.23936085
33	0xbf03b615	-0.5144971
34	0xbfdc1059	-1.7192489
35	0xbbcd6a9e	-0.0062688133
36	0xbc9177fc	-0.017757408
37	0x3cde2350	0.027116448
38	0x3a278741	0.0006390699
39	0x3d3d01dd	0.046144355
40	0xbc2983df	-0.010346382
41	0xbf0b46df	-0.54405016
42	0xba408bae	-0.00073450326
43	0xbea6d1b3	-0.32581863
44	0x3d3b1d4b	0.045682233
45	0xbf1c26fa	-0.60996974
46	0xbf8afc43	-1.0858234
47	0xbe7d0d24	-0.24712044
48	0xbd9c7c94	-0.07640949
49	0xbe13334f	-0.14375041
50	0x3e331bb9	0.17491044
51	0x3e11f70b	0.14254396
52	0xbc9d6c4a	-0.019216675
53	0xbedda955	-0.43293253
54	0x3e355835	0.1770943
55	0xbe0d1f74	-0.1378153
56	0x3f08bffa	0.53417933
57	0x3df5e258	0.12006062
58	0xbeb06e66	-0.34459227
59	0xbec03f62	-0.37548357
60	0xbf4b8201	-0.79495245
61	0x3e5ba15d	0.21448274
62	0xbda54f6d	-0.0807179
63	0xbcea5e03	-0.028609281
64	0xbd4732a4	-0.04863228
65	0xbe7f4ca7	-0.24931584
66	0xbf0beb86	-0.54656255
67	0xbd75ecb1	-0.06004018
68	0x3eb63bb6	0.3559243
69	0xbe03b36c	-0.12861413
70	0xbeafbb14	-0.34322417
71	0xbea669ce	-0.32502598
72	0x3e714c0c	0.23564166
73	0x3c9d2758	0.0191838
74	0x3cbcaffe	0.023033138
75	0x3e3d1570	0.18465209
76	0x3d59e747	0.05319908
77	0x3e53d6c0	0.2068739
78	0xbe7cc204	-0.24683386
79	0xbf825de0	-1.0184898
80	0x3eb3c055	0.35107675
81	0x3e8b36a3	0.27190122
82	0x3d95f9ae	0.07323013
83	0xbec22368	-0.37917638
84	0xbe09f530	-0.13472438
85	0x3e19fef6	0.15038666
86	0xbe2416d9	-0.1602434
87	0x3eaf0b74	0.34188426
88	0x3e250327	0.16114484
89	0x3d9ca709	0.07649047
90	0x3d85c312	0.06531347
91	0x3c9e7331	0.019342037
92	0x3e09a1c6	0.13440618
93	0xbdcd0057	-0.100098304
94	0xbdb60cfd	-0.08889196
95	0x3cc9ece9	0.0246491
96	0xbd5176c3	-0.05113865
97	0x3e0f3b0b	0.13987367
98	0x3e42892c	0.1899764
99	0xbe35e5f9	-0.17763509
100	0x3e9309cc	0.28718412
101	0x3e432e7a	0.19060698
102	0xbd38d98c	-0.045129344
103	0xbecff562	-0.406169
104	0xbd0855e6	-0.033285044
105	0xbe324bb5	-0.17411692
106	0x38baffe1	8.916832e-05
107	0xbd0606a7	-0.032721188
108	0x3e3c33f9	0.18379201
109	0xbd14d5f1	-0.036336843
110	0x3bfc5927	0.0077010575
111	0x3d4086c4	0.047003523
112	0x3d32299c	0.043496713
113	0x3e2e5322	0.170239
114	0x3d7ef2a7	0.06224313
115	0x3cd6f8f7	0.026241763
116	0xbe9c9896	-0.30585164
117	0x3da09bd2	0.0784222
118	0x3e818d47	0.253031
119	0x3d7f54e7	0.06233683
120	0xbc79ba97	-0.01524224
121	0xbdcced5d	-0.10006211
122	0x3de7ef49	0.11324937
123	0x3db3bcd5	0.08776251
124	0xbcf4d184	-0.029885061
125	0xbb51ff3b	-0.0032042998
126	0xbe0d09f8	-0.13773334
127	0x3d810087	0.06298929
128	0xbdca05cc	-0.09864387
129	0xbd406f1b	-0.04698096
130	0xbd237b43	-0.039912473
131	0x3ecf799c	0.40522468
132	0xbec0fcc9	-0.3769286
133	0xbe06ef8e	-0.1317732
134	0xbf27424c	-0.65335536
135	0xc0020c54	-2.0320024
136	0xbd498c72	-0.049206205
137	0x3dfd9ec8	0.12383801
138	0x3d8a2cc5	0.0674682
139	0x3e1c2bb4	0.15251046
140	0x3e96654a	0.29374152
141	0xbd6e2811	-0.05814368
142	0x3cbd6504	0.023119457
143	0x3e965a07	0.2936556
144	0x3da62a68	0.08113557
145	0xbc915f9b	-0.017745784
146	0xbd99505e	-0.07486032
147	0x3c866007	0.016403211
148	0xbd3a446c	-0.04547541
149	0xbebf1aa6	-0.3732502
150	0x3dd2327f	0.102635376
151	0xbee42b00	-0.44564056
152	0xbe5de256	-0.21668372
153	0x3dc44912	0.095842496
154	0xbf068550	-0.5254717
155	0xbd0931b4	-0.033494666
156	0x3c69b0d3	0.01426335
157	0xbeb09bcb	-0.3449386
158	0x3e372c56	0.17888007
159	0xbcb20803	-0.021732336
160	0xbdec43c3	-0.11536362
161	0xbf385763	-0.7200834
162	0xbebf69a4	-0.37385285
163	0xbe6d5cf3	-0.23179989
164	0xbd94ba1d	-0.07262061
165	0xbd3bba5c	-0.045832023
166	0x3eaa9b23	0.33321485
167	0x3eee2def	0.4651942
168	0x3d2a8655	0.041632015
169	0xbd9bf1d0	-0.076144814
170	0xbd921350	-0.0713259
171	0xbe687680	-0.22701454
172	0x3d907018	0.0705263
173	0x3d6743f0	0.056461275
174	0x3d45268f	0.048132475
175	0xbeaf304f	-0.34216544
176	0x3e470139	0.1943406
177	0xbeef788b	-0.46771654
178	0x3d47a2b0	0.048739135
179	0xbeac3ef5	-0.33641782
180	0x3e8de74c	0.27715528
181	0xbea31e57	-0.31859085
182	0x3cc56a13	0.024098432
183	0xbd545d88	-0.05184701
184	0xbcbcb6c4	-0.023036368
185	0x3d395de0	0.04525554
186	0xbc95c972	-0.018284533
187	0x3db54ed6	0.088529274
188	0x3db2bf4f	0.087278955
189	0x3de2885c	0.11061165
190	0x3ed26a06	0.41096514
191	0xbcb1edc5	-0.021719823
192	0xbdb7a048	-0.08966118
193	0xbf37ec79	-0.71845204
194	0xc00b3326	-2.1749969
195	0x3d3157d9	0.04329667
196	0x3d5aab4b	0.053386014
197	0x3cb367f0	0.021900147
198	0xbd56a5de	-0.052404277
199	0xbcbf7fe5	-0.023376415
200	0x3d939725	0.07206563
201	0x3dc85b64	0.097830564
202	0x3d25c80f	0.040473994
203	0xbccc114f	-0.024910597
204	0xbe2ed870	-0.17074752
205	0x3e3012f3	0.17194729
206	0x3de4ef07	0.11178403
207	0x3e0723e1	0.1319728
208	0x3df74c79	0.12075133
209	0xbcf827d9	-0.030292438
210	0x3dcb3134	0.09921494
211	0x3cc4acce	0.024008181
212	0x3da6d72c	0.081465095
213	0x3d396790	0.04526478
214	0xbd94d42b	-0.0726703
215	0x3dba249b	0.09089013
216	0xbb457dec	-0.003013487
217	0x3dd375f5	0.10325233
218	0x3ce9ab13	0.028523957
219	0xbc279082	-0.010227324
220	0xbd0204fe	-0.031743042
221	0xbcb1f24c	-0.021721981
222	0xbe97781c	-0.29583824
223	0x3d790a9a	0.060801126
224	0xbd94f246	-0.072727725
225	0xbdf86266	-0.12128143
226	0x3e54f6f4	0.2079733
227	0xbdda6083	-0.106629394
228	0xbe8c4645	-0.2739736
229	0xbd7eaa05	-0.062173862
230	0x3d3bdc1d	0.045864213
231	0x3f2d2019	0.676271
232	0xbea08f2b	-0.31359228
233	0x3e0bde46	0.1365901
234	0x3d4fe4ce	0.050755315
235	0xbe0f340c	-0.13984698
236	0xba681c1c	-0.0008854286
237	0xbe376ab7	-0.17911802
238	0xbe6f5535	-0.23372348
239	0x3df7698f	0.120806806
240	0xbd062004	-0.032745376
241	0x3ef4d34b	0.47817454
242	0xbe468eaf	-0.19390367
243	0xbe33a4b3	-0.17543297
244	0x3dc24b4b	0.09487017
245	0xbd582003	-0.052764904
246	0x3e56759d	0.20943303
247	0xbe7950fd	-0.24347301
248	0xbdea4b67	-0.11440163
249	0xbd08a99c	-0.033364877
250	0xbe37e2f9	-0.17957677
251	0x3e730fcb	0.23736493
252	0xbe80b105	-0.25135055
253	0xbd1e569c	-0.038656816
254	0x3d128c8d	0.03577857
255	0xbd0bef40	-0.034163713

fc1.bias f4 [64]
0	0x3e10f277	0.14154993
1	0xbda4d535	-0.080484785
2	0xbe2ad613	-0.16683225
3	0xbd6fa463	-0.05850638
4	0x3deec536	0.11658709
5	0x3db9016a	0.09033473
6	0xbe7ffcba	-0.24998751
7	0xbc3dd0a3	-0.011585387
8	0xbda98030	-0.08276403
9	0xbe022927	-0.12711011
10	0x3d764d24	0.06013216
11	0x3e873ccb	0.2641357
12	0x3e7ba2ac	0.24573773
13	0xbd5708e1	-0.052498702
14	0xbd38df59	-0.045134876
15	0x3cb3e215	0.02195839
16	0x3e6a48c1	0.22879316
17	0x3cb43ee2	0.022002641
18	0xbdcd9b33	-0.100393675
19	0xbe2dc493	-0.16969518
20	0xbe054a22	-0.1301656
21	0x3da82da6	0.08211832
22	0xbc1cb917	-0.009565613
23	0xbdd2b38b	-0.10288151
24	0xbde40e27	-0.11135512
25	0x3d8ce17a	0.06878944
26	0xbe120244	-0.14258677
27	0xbda38c2c	-0.0798572
28	0x3df56dc7	0.11983829
29	0x3dd1dc5f	0.102471106
30	0x3cb42cba	0.021993984
31	0xbe8f75a2	-0.28019434
32	0x3d99658f	0.07490074
33	0x3dab8b1f	0.083761446
34	0xbe600557	-0.21877037
35	0xbd62e6eb	-0.055396
36	0xbd4bf576	-0.049794637
37	0x3d8f05d5	0.06983534
38	0xbb8f8ccb	-0.0043807975
39	0xbdce7107	-0.10080152
40	0xbd421c37	-0.04739019
41	0xbbdea279	-0.0067942706
42	0xbe25b161	-0.16180946
43	0x3caf5b27	0.02140577
44	0x3cff5af7	0.031171305
45	0xbd39ba33	-0.04534359
46	0xba6a94fe	-0.0008948593
47	0xbe853a0f	-0.26020858
48	0xbe6fb6f6	-0.23409638
49	0x3d90fdb7	0.07079642
50	0xbe4af61a	-0.19820443
51	0x3e07f31f	0.13276337
52	0x3c5dd0f5	0.013538589
53	0xbe0ead96	-0.13933405
54	0xbe581783	-0.21102719
55	0x3d931cb2	0.071832076
56	0x3e3b74ed	0.18306322
57	0xbe1806e3	-0.14846377
58	0xbdf6f31f	-0.120580904
59	0xbe50cf98	-0.2039169
60	0x3e29a47b	0.1656665
61	0x3d237c9c	0.03991376
62	0x3c9ea9e8	0.019368127
63	0xbce44517	-0.027864976

fc2.weight f4 [64, 64]
0	0xbdb3055c	-0.087412566
1	0x3e949d78	0.2902639
2	0x3e7542e7	0.23951302
3	0x3f184544	0.5948069
4	0xbefd266c	-0.49443376
5	0x3e3ccce6	0.18437538
6	0xbf017ec0	-0.5058403
7	0xbe7ddcef	-0.2479131
8	0x3e3e1938	0.18564308
9	0xbec4ccde	-0.3843755
10	0xbf0213fd	-0.5081175
11	0xbd1cb82e	-0.038261585
12	0xbec27cb3	-0.37985763
13	0x3de9adb5	0.11410085
14	0xbd853e95	-0.06506077
15	0xbeee2ebd	-0.46520033
16	0xbe641950	-0.22275281
17	0xbe5f27f4	-0.21792585
18	0xbef00cbd	-0.4688472
19	0xbde381a1	-0.11108709
20	0x3dbc90c5	0.092073
21	0xbf07ad72	-0.5299903
22	0xbe47cbcb	-0.19511335
23	0xbe864efb	-0.26232132
24	0xbe4c2bf0	-0.19938636
25	0x3e3b6dbd	0.1830358
26	0xbcb87e75	-0.022521237
27	0x3eb83e73	0.35985145
28	0xbeec04bc	-0.46097362
29	0xbcfb2bcc	-0.030660532
30	0x3e161b72	0.14658907
31	0xbf155f56	-0.58348596
32	0xbda4ce4d	-0.08047161
33	0x3ecadd96	0.39622182
34	0xbd6e58a2	-0.058189996
35	0xbd557e38	-0.052122325
36	0xbf233b39	-0.6376224
37	0x3e7ca61e	0.24672744
38	0xbe8a67ac	-0.2703222
39	0x3ecf8032	0.40527493
40	0xbf0059ad	-0.50136834
41	0x3dd8de4f	0.10589277
42	0x3f186f38	0.59544706
43	0xbe20ca30	-0.15702128
44	0xbcc36240	-0.02385056
45	0xbfb173e3	-1.3863491
46	0xbf08936d	-0.53349954
47	0x3dd45d58	0.103693664
48	0xbf401bce	-0.75042427
49	0x3e42e7e0	0.19033766
50	0xbf0e4784	-0.55577874
51	0x3d4c3f17	0.049864855
52	0x3e922c64	0.28549492
53	0x3ec26471	0.37967256
54	0xbf4a23ff	-0.78961176
55	0xbd948d59	-0.072535224
56	0xbe275887	-0.16342364
57	0xbee8f5f4	-0.45500147
58	0x3dbb1d97	0.09136503
59	0xbe602f80	-0.2189312
60	0xbe41b9ac	-0.18918484
61	0x3eaa0ba8	0.33212018
62	0xbdce848d	-0.10083876
63	0x3d61c764	0.055121794
64	0x3ea7b954	0.32758582
65	0xbeee8603	-0.46586618
66	0x3dec77ef	0.11546313
67	0xbeca73c9	-0.39541462
68	0x3e167597	0.14693294
69	0x3df4b828	0.119491875
70	0x3cd4c8c5	0.02597464
71	0x3de1b986	0.11021714
72	0xbe022f68	-0.12713397
73	0x3eabc204	0.3354646
74	0x3caff0bc	0.021477096
75	0x3eac92f9	0.3370588
76	0xbda23fdd	-0.07922337
77	0x3d99fef5	0.07519332
78	0x3e85926a	0.26088268
79	0xbe8458bc	-0.2584895
80	0x3d97c59d	0.074107386
81	0x3dce3a08	0.10069662
82	0xbeb21cfb	-0.34787735
83	0x3e8ca0f8	0.2746656
84	0xbe9ed942	-0.3102513
85	0xbe9a3589	-0.3011897
86	0x3ce999cb	0.028515717
87	0xbcb0a972	-0.021565173
88	0xbec87a35	-0.39155737
89	0x3dbea2bc	0.09308383
90	0x3e8245d2	0.25443894
91	0xbebddf29	-0.3708432
92	0x3dbc38ee	0.09190546
93	0xbaf5977f	-0.0018737166
94	0xbe92f588	-0.2870295
95	0x3f6d8981	0.9278794
96	0xbe80cb89	-0.25155285
97	0xbd984160	-0.07434344
98	0x3d7aae38	0.061201304
99	0x3df14e2a	0.11782487
100	0xbd364d3c	-0.04450725
101	0xbc888dbf	-0.016669152
102	0x3e17de40	0.14830875
103	0xbdbc7c93	-0.09203448
104	0xbec196f3	-0.37810478
105	0xbea54ebd	-0.32286635
106	0x3e8c5e5c	0.2741574
107	0xbe189ee8	-0.14904368
108	0x3ea8958e	0.329266
109	0x3decc5e0	0.11561179
110	0xbe4a97ef	-0.1978452
111	0xbe3c7a26	-0.18405971
112	0x3cb67c4e	0.02227607
113	0x3e72c989	0.23709692
114	0x3d77aeaf	0.060469326
115	0x3e0c6b42	0.1371279
116	0x3ddb0006	0.10693364
117	0x3ddf7246	0.10910468
118	0xbea3a364	-0.31960595
119	0x3cd5069e	0.026004132
120	0xbe65d17b	-0.22443192
121	0xbdcb1a24	-0.09917095
122	0x3ebd3607	0.36955282
123	0xbd1587bf	-0.03650641
124	0xbe40758e	-0.18794844
125	0xbe3bd553	-0.18343095
126	0xbe0cc379	-0.13746442
127	0xbe2f5eb1	-0.17125966
128	0xbe1a805c	-0.15088028
129	0xbe453664	-0.1925903
130	0xbe5292ce	-0.20563814
131	0xbe004ccf	-0.125293
132	0xbe12a3d7	-0.14320312
133	0x3e4be679	0.19912137
134	0xbeac86cf	-0.336966
135	0x3dc7dbb6	0.097587034
136	0x3b43dfd8	0.002988806
137	0xbef8923b	-0.48549065
138	0xbdc7215a	-0.09723158
139	0xbe519c1d	-0.20469709
140	0x3dacc9d2	0.08436932
141	0x3d9be5f6	0.07612221
142	0x3d0451e5	0.032304663
143	0x3d9036fc	0.070417374
144	0xbdfbac83	-0.122887634
145	0xbe2cb4d8	-0.16865861
146	0xbe800eaf	-0.25011203
147	0xbe394c45	-0.18095501
148	0xbdfe8c40	-0.12429094
149	0x3cae82fd	0.021302694
150	0xbde961bd	-0.11395595
151	0xbe760efb	-0.24029152
152	0xbecaa7ec	-0.3958124
153	0x39ee036d	0.0004539745
154	0x3e1f53ec	0.15559357
155	0x3c8f0dd6	0.017462652
156	0xbe997e27	-0.2997906
157	0xbcc80e1c	-0.02442079
158	0x3d8471b7	0.06467002
159	0xbe33dcd0	-0.17564702
160	0xbe9bc321	-0.3042231
161	0xbea2b065	-0.31775203
162	0xbe92ab1d	-0.28646174
163	0xbdc734d9	-0.09726877
164	0x3d97560e	0.073894605
165	0x3e0029ce	0.12515947
166	0xbdb684c5	-0.089120425
167	0xbe05fb4e	-0.13084146
168	0xbe160ff4	-0.14654523
169	0xbd9a4053	-0.075318
170	0xbe182f67	-0.14861833
171	0xbd4807a2	-0.048835404
172	0xbe82e5e1	-0.2556601
173	0xbe9582f3	-0.2920147
174	0xbe267d12	-0.16258648
175	0xbec7a906	-0.38996142
176	0x3e6b4b49	0.22977938
177	0xbda30f00	-0.079618454
178	0xbeb283d4	-0.34866202
179	0x3e23ec5c	0.16008133
180	0xbe108386	-0.14112672
181	0xbdf7f24f	-0.121067636
182	0xbd4fbe6e	-0.050718717
183	0xbe96c57a	-0.29447538
184	0x3dfe0984	0.12404159
185	0xbd6e00fc	-0.058106408
186	0xbd0d7023	-0.03453077
187	0x3d63b6ac	0.05559413
188	0xbe6d28f6	-0.23160157
189	0xbe32ef83	-0.17474179
190	0x3e98e7af	0.2986426
191	0xbd79ecfe	-0.06101703
192	0x3dd064fc	0.10175511
193	0xbdf49103	-0.11941721
194	0xbd4d20d8	-0.05008015
195	0xbe0d4295	-0.1379493
196	0x3e8092ce	0.25112003
197	0xbf03a908	-0.51429796
198	0xbdecf96d	-0.11571012
199	0x3ea400fb	0.32031998
200	0xbf0270b2	-0.5095321
201	0xbec9c92c	-0.39411294
202	0xbe82cdc8	-0.25547624
203	0xbdd6e330	-0.10492551
204	0xbe0a6927	-0.13516675
205	0xbf24583d	-0.6419714
206	0x3ee987a5	0.456113
207	0x3cf1df8a	0.029525537
208	0xbdaab685	-0.08335594
209	0xbf3f42cb	-0.74711293
210	0xbe7fa2fe	-0.2496452
211	0xbd257e13	-0.040403437
212	0x3e087652	0.13326386
213	0x3e2894b2	0.16462973
214	0x3d79afec	0.060958788
215	0x3e957f95	0.291989
216	0x3d6298b6	0.055321418
217	0x3ec59e44	0.3859731
218	0xbe00ce72	-0.12578753
219	0x3e0ac4e5	0.13551672
220	0xbeb4ba02	-0.35298163
221	0xbf1fdf0a	-0.62449706
222	0x3eed8df6	0.4639737
223	0xbc8aa0de	-0.01692241
224	0xbea9b33a	-0.33144552
225	0x3db2545c	0.087074965
226	0xbd4e39c5	-0.050348062
227	0xbe5a3b32	-0.21311644
228	0xbe13f644	-0.14449412
229	0x3dbdd5b5	0.09269277
230	0x3eebd3ef	0.4606013
231	0xbe014f73	-0.12627964
232	0xbf37708c	-0.7165611
233	0x3e8c85f1	0.2744594
234	0xbdda1ea9	-0.10650379
235	0xbe4c5bcb	-0.19956891
236	0xbec8cc0f	-0.39218184
237	0x3f0effd6	0.55859125
238	0x3d1af7b1	0.037833873
239	0xbcacc696	-0.021090787
240	0xbe81cc6d	-0.25351277
241	0xbf00e0d7	-0.5034308
242	0xbe3f3904	-0.18674093
243	0xbe2bacd2	-0.16765144
244	0xbce2cc67	-0.027685357
245	0x3e2f7159	0.17133082
246	0xbc4c81da	-0.012482131
247	0xbd3d417d	-0.046205033
248	0xbbe0055f	-0.006836578
249	0xbec79de9	-0.38987663
250	0xbf07cf42	-0.53050625
251	0xbdaef4a5	-0.08542756
252	0x3ca8145b	0.020517519
253	0xbe290f97	-0.16509853
254	0xbd3090ed	-0.043106962
255	0x3e3b22c3	0.1827498

fc2.bias f4 [64]
0	0xbda1ca3a	-0.078999
1	0x3e0cdfd6	0.13757262
2	0x3dbce4ab	0.092233025
3	0xbd33b6ce	-0.043875508
4	0x3e215247	0.15754043
5	0xbdd5e2e6	-0.10443668
6	0x3e62cca8	0.22148383
7	0xbda874a2	-0.08225371
8	0x3f1c9bcf	0.61175245
9	0x3f6c3dc1	0.9228173
10	0xbeb51736	-0.3536927
11	0x3e8c28a9	0.2737477
12	0x3f211025	0.6291526
13	0xbe21c968	-0.15799487
14	0x3b4da15a	0.003137669
15	0xbc363bc6	-0.01112265
16	0x3db406bb	0.08790346
17	0xbe1b0f5e	-0.15142581
18	0xbd3c1707	-0.045920398
19	0x3eef6ebb	0.46764168
20	0x3ef8a28f	0.48561522
21	0x3f7a4fb2	0.97777855
22	0xbe81b028	-0.2532971
23	0xbd46accb	-0.048504632
24	0x3e63d103	0.222477
25	0xbd6d995e	-0.05800759
26	0x3d8f3333	0.06992187
27	0xbeb6649a	-0.35623628
28	0xbd0ffb9e	-0.03515207
29	0x3e1ea927	0.15494214
30	0x3ddd569a	0.108075336
31	0xbe7f965e	-0.24959704
32	0x3d8897e1	0.066695936
33	0x3e819fe5	0.25317302
34	0x3d39dea1	0.04537833
35	0x3e5e0ccc	0.21684569
36	0xbd6d105f	-0.05787694
37	0xbd4c5d94	-0.04989393
38	0x3d92a025	0.071594514
39	0x3dfeb188	0.12436205
40	0xbe21cbc7	-0.15800391
41	0x3f6b1eea	0.91844046
42	0x3f5f529f	0.87235445
43	0xbdf6fbe1	-0.12059761
44	0x3d8c3e02	0.068477646
45	0x3c56bd84	0.0131067075
46	0x3eef2c39	0.46713427
47	0x3d30ed70	0.043195188
48	0x3d53e70e	0.051734023
49	0xbea7afbe	-0.32751268
50	0xbddb617b	-0.10711952
51	0x3f044d3f	0.5168037
52	0xbe32b835	-0.17453082
53	0xbd4116b2	-0.047140785
54	0x3ea1b430	0.31582785
55	0x3ef327f6	0.47491425
56	0xbe307418	-0.17231786
57	0xbde4cc28	-0.11171752
58	0x3d3e5f52	0.046477623
59	0xbe113c76	-0.1418322
60	0xbe57e32f	-0.21082757
61	0x3e613e12	0.21996334
62	0x3cb143c2	0.021638755
63	0xbe87a4d0	-0.2649293

fc3.weight f4 [4, 64]
0	0xbf24793a	-0.6424748
1	0x3d915224	0.07095745
2	0xbe1b6d0b	-0.15178315
3	0xbd92d844	-0.07170156
4	0x3f058211	0.5215159
5	0x3ebb3f47	0.36571714
6	0x3e45f8bd	0.19333167
7	0xbebf736f	-0.37392756
8	0x3e8add20	0.2712183
9	0x3e8abb2e	0.27095932
10	0xbe7a6e8a	-0.2445623
11	0x3da599b5	0.08085958
12	0x3e564c0b	0.20927446
13	0xbed1a66b	-0.4094728
14	0x3e341968	0.17587817
15	0x3d013e31	0.03155345
16	0xbd043bff	-0.03228378
17	0x3ce5c71a	0.02804904
18	0xbede2405	-0.43386856
19	0x3e6f5d72	0.2337549
20	0x3dbd9f2a	0.09258874
21	0x3e9e168e	0.30876583
22	0xbd92952e	-0.0715736
23	0x3ddacf97	0.10684126
24	0x3e2ae433	0.16688614
25	0xbdbba9a9	-0.091632195
26	0x3de33216	0.110935375
27	0xbe8639ab	-0.26215872
28	0xbf011af8	-0.50431776
29	0xbcadfcc6	-0.021238696
30	0xbf03cee6	-0.51487577
31	0x3ed0d502	0.40787512
32	0x3ebfb9c0	0.37446404
33	0x3e54425b	0.20728438
34	0xbcd6e1b0	-0.026230663
35	0x3d8f2fa7	0.06991511
36	0x3ee88152	0.45411164
37	0x3dd9410f	0.10608112
38	0xbf075b5a	-0.52873766
39	0x3e0fc66d	0.14040537
40	0xbe6d7cfa	-0.23192206
41	0x3e881415	0.2657782
42	0x3e788b3b	0.24271862
43	0xbcb70977	-0.02234338
44	0x3eb8e6f3	0.361137
45	0x3d84e0b4	0.06488171
46	0x3e5faf61	0.21844245
47	0x3ef655f3	0.4811245
48	0x3bbf827b	0.005844412
49	0xbddc5dba	-0.107600644
50	0xbf065f78	-0.52489424
51	0x3ef3cccc	0.47617185
52	0xbed0a032	-0.4074722
53	0xbf2de347	-0.6792492
54	0x3d3f6fbd	0.04673742
55	0x3e7fef52	0.24993637
56	0xbea8fb83	-0.33004388
57	0x3e23b34d	0.15986367
58	0x3e13a45c	0.14418167
59	0x3e602d78	0.21892345
60	0xbeebf9e4	-0.4608909
61	0x3eaf082c	0.34185922
62	0xbdcdac02	-0.100425735
63	0x3e3a2a7f	0.18180273
64	0xbe423845	-0.18966778
65	0x3d461968	0.048364073
66	0x3edf0f82	0.4356652
67	0xbd57ae5f	-0.052656528
68	0x3efb8ef4	0.49132502
69	0x3ea3935e	0.3194837
70	0x3e6a623e	0.22889039
71	0xbde8a03b	-0.113586865
72	0x3ea6828f	0.32521483
73	0x3e89c16e	0.26905388
74	0xbe315623	-0.17318015
75	0xbd044b74	-0.03229852
76	0x3ea164ea	0.31522304
77	0x3d485731	0.048911277
78	0x3e562833	0.20913772
79	0x3e89f7e4	0.26946938
80	0x3e23313e	0.15936753
81	0x3e1d466d	0.15358897
82	0xbd2edda1	-0.04269183
83	0x3e41f868	0.18942416
84	0x3e558731	0.20852353
85	0x3ead5adb	0.3385838
86	0xbde940fa	-0.113893464
87	0x3e11080d	0.14163227
88	0x3e3a2b1c	0.18180507
89	0x3d91f367	0.071265034
90	0xbe33598f	-0.17514633
91	0xbe3ef98f	-0.18649887
92	0x3e95a9b7	0.29231045
93	0xbb9b046e	-0.0047307527
94	0x3e0456c6	0.12923726
95	0x3ec71b0e	0.3888783
96	0x3ecaf61c	0.39640892
97	0x3e8a6049	0.27026585
98	0xbb3a998f	-0.0028472876
99	0x3e79cfdc	0.24395698
100	0x3ed53165	0.41639248
101	0x3e003faf	0.12524293
102	0x3d70bfd8	0.058776706
103	0x3ea669f9	0.32502726
104	0xbe8e8788	-0.27837777
105	0x3e7eaf3f	0.24871539
106	0x3e46f840	0.19430637
107	0x3e845fa7	0.25854227
108	0x3e9993d8	0.29995608
109	0xbe359ebb	-0.17736332
110	0x3e540046	0.2070323
111	0x3ee7b935	0.4525849
112	0x3e618a55	0.22025426
113	0xbe7e2dee	-0.24822208
114	0x3d91ad27	0.07113104
115	0x3eaa46d6	0.3325717
116	0xbd72cd72	-0.05927796
117	0xbe119014	-0.14215118
118	0x3e55b100	0.20868301
119	0x3e742088	0.23840535
120	0x3caca469	0.02107449
121	0x3e5b0b5e	0.21391055
122	0x3e160814	0.14651519
123	0xbe33abfe	-0.17546079
124	0xbed8f1a3	-0.42371854
125	0x3eaec62b	0.34135565
126	0xbe257921	-0.16159488
127	0xbe17cd66	-0.14824447
128	0xbf00872d	-0.5020626
129	0x3e13e986	0.14444551
130	0x3d549f6f	0.05190986
131	0x3ec57c0e	0.3857121
132	0x3ed6b2da	0.41933328
133	0x3f1c0683	0.60947436
134	0x3e38e415	0.18055756
135	0xbe1173bc	-0.14204305
136	0x3ea2d540	0.31803322
137	0x3e832ba3	0.2561923
138	0xbe6caa59	-0.23111857
139	0x3e9da8ee	0.30792946
140	0x3e9158fc	0.28388202
141	0x3d074f53	0.033034634
142	0x3f27cf04	0.65550256
143	0x3e8132d6	0.25234097
144	0x3ea5adba	0.32359105
145	0x3e04467e	0.12917516
146	0xbedc2b91	-0.4300199
147	0x3e0f9136	0.14020237
148	0x3e2eb0d0	0.17059636
149	0x3eaab318	0.33339763
150	0xbd7c9cb2	-0.061672874
151	0x3da292b2	0.07938136
152	0x3e3aec5a	0.18254223
153	0x3c40d728	0.011770047
154	0xbf1cee27	-0.6130089
155	0xbecdbb3d	-0.40181914
156	0x3dc83423	0.09775569
157	0x3e7f6cd9	0.24943866
158	0xbed07115	-0.40711275
159	0xbe1ad4f7	-0.15120302
160	0xbe0413ab	-0.12898128
161	0xbdf06ff9	-0.11740107
162	0x3e7487b0	0.23879886
163	0x3e0bc3ec	0.13648957
164	0xbe006c0f	-0.12541221
165	0x3dc2db9f	0.09514546
166	0x3e2873d5	0.16450436
167	0x3dfa5f58	0.122252166
168	0x3e145eb7	0.14489256
169	0x3e9270ca	0.28601676
170	0x3e9e4618	0.30912852
171	0xbe3358c9	-0.17514338
172	0x3e745906	0.23862085
173	0xbed3368d	-0.41252556
174	0x3e4e879b	0.20168917
175	0x3da90bb8	0.08254188
176	0x3ed60d37	0.41806957
177	0xbd8a1583	-0.06742384
178	0x3ea0271c	0.31279838
179	0x3ea7fcfe	0.32810205
180	0xbd9d924e	-0.07693921
181	0xbde089e0	-0.109637976
182	0xbd0ae4a3	-0.03390945
183	0x3e2d22d9	0.16907825
184	0xbe4f8fbb	-0.20269673
185	0xbf065504	-0.52473474
186	0x3e0ebad6	0.1393846
187	0x3ef9bdbe	0.48777574
188	0xbe032d6c	-0.12810296
189	0x3dcaf685	0.09910301
190	0xbf0afcc5	-0.54291946
191	0xbeae8f55	-0.3409373
192	0x3c8f4114	0.017487086
193	0x3e958190	0.2920041
194	0x3e645e8c	0.22301692
195	0xbebbc092	-0.36670357
196	0x3d0ef612	0.03490264
197	0x3dc83213	0.09775176
198	0xbe054757	-0.13015495
199	0xbd94fb34	-0.07274476
200	0x3e048020	0.12939501
201	0x3e9245a2	0.2856875
202	0xbca9315d	-0.020653421
203	0x3e304d20	0.17216921
204	0x3ecbbc30	0.39792013
205	0xbe6017df	-0.21884106
206	0x3eea79a1	0.4579592
207	0x3dc5fe13	0.096676014
208	0x3e71ccb9	0.23613252
209	0x3de7f9e4	0.1132696
210	0x3db23f18	0.087034404
211	0x3e4562d3	0.1927598
212	0x3dce530c	0.10074434
213	0x3eb30a73	0.3496891
214	0xbe83a748	-0.25713563
215	0x3f452a66	0.7701782
216	0x3e2c11cf	0.16803668
217	0xbee0e383	-0.43923578
218	0x3e915536	0.28385323
219	0xbbdaa262	-0.0066721896
220	0x3e89e35d	0.26931277
221	0xbd3cd6b5	-0.046103198
222	0xbf1f72d0	-0.62284565
223	0xbe813694	-0.25236952
224	0x3e993574	0.29923594
225	0x3e397dfc	0.18114465
226	0x3e77fdb2	0.24217871
227	0x3de99955	0.11406199
228	0x3e97f085	0.2967569
229	0x3ef11864	0.4708892
230	0x3db9508c	0.09048566
231	0x3d5913dd	0.05299746
232	0xbeba2e4e	-0.36363453
233	0x3e99c7ca	0.3003524
234	0x3e8d7267	0.27626345
235	0xbf01cbf4	-0.5070183
236	0x3e249f76	0.16076455
237	0xbe632c22	-0.22184804
238	0x3dcb5892	0.09929003
239	0x3ee5ab5f	0.44857308
240	0x3e5f8a31	0.2183006
241	0x3d01872a	0.031623043
242	0x3e96b37c	0.2943381
243	0x3e55ca46	0.20877942
244	0xbda859a4	-0.082202226
245	0xbf025b65	-0.50920707
246	0x3e529e50	0.20568204
247	0x3ea9b115	0.33142915
248	0xbe28330c	-0.16425723
249	0x3dcaeddb	0.099086486
250	0xbeed8cbe	-0.4639644
251	0x3e9a2f63	0.30114278
252	0xbdd471fe	-0.10373305
253	0x3d02203a	0.031769015
254	0xbec0c168	-0.37647557
255	0xbeb26089	-0.34839275

fc3.bias f4 [4]
0	0x3f2e9701	0.68199164
1	0x3edc2772	0.42998844
2	0x3efa39d4	0.48872244
3	0x3ef9b5a0	0.4877138
