checkpoint_doubleQ-1000.pth (torch_old, 28345 bytes, 6 tensors)

fc1.weight f4 [64, 37]
0	0x3e602d8a	0.21892372
1	0xbe5484e7	-0.20753823
2	0xbef80243	-0.48439226
3	0xbe08659d	-0.13320012
4	0xbf17c403	-0.59283465
5	0x3d4597c4	0.048240438
6	0x3dd802ff	0.105474465
7	0x3dc88183	0.097903274
8	0xbc56c3ba	-0.013108188
9	0xbe9374d2	-0.28800064
10	0xbd87a4b2	-0.0662321
11	0xbd533e54	-0.051573113
12	0xbd6c6b86	-0.05771973
13	0xbe55de2a	-0.2088553
14	0xbf01f930	-0.50770855
15	0x3e111006	0.14166269
16	0xbd6e2775	-0.058143098
17	0xbe194901	-0.14969255
18	0xbec9a364	-0.3938247
19	0xbe9b7f89	-0.3037074
20	0x3d97d45f	0.074135534
21	0x3d39ac61	0.04533041
22	0x3e1b6105	0.15173729
23	0xbe51195a	-0.20419827
24	0xbf1a0ec3	-0.60178775
25	0xbd9ec55f	-0.07752489
26	0x3dbe9174	0.09305087
27	0x3c611ada	0.013739312
28	0xbea0e990	-0.31428194
29	0xbe8026f0	-0.25029707
30	0xbd9591f0	-0.07303226
31	0xbd73a9db	-0.05948816
32	0x3e3281d6	0.17432341
33	0xbf074f06	-0.52854955
34	0xbf235e52	-0.63815796
35	0x3c9ea219	0.019364404
36	0xbcf73c0a	-0.030179996
37	0x3dec9c10	0.11553204
38	0xbdc75a0e	-0.097339734
39	0x3dcc3777	0.099715166
40	0xbc2a6d1c	-0.01040199
41	0xbedd8e10	-0.43272448
42	0x3c0ca399	0.008583927
43	0xbeb5c933	-0.35505065
44	0xbe8161df	-0.25269982
45	0xbd957780	-0.072981834
46	0xbf47b72f	-0.7801389
47	0xbd9b874d	-0.07594166
48	0xbe8d4326	-0.27590293
49	0xbd8a9259	-0.06766195
50	0x3e90c76c	0.28277147
51	0x3d9f9c4c	0.07793483
52	0xbdc2a805	-0.095047034
53	0xbe5bb120	-0.21454287
54	0x3e67ca34	0.22635728
55	0xbd19fb78	-0.037593335
56	0x3e7a7da3	0.24461989
57	0xbd23eb44	-0.04001929
58	0xbe80fd88	-0.2519343
59	0xbe0021d2	-0.12512901
60	0xbe68ce7d	-0.22735019
61	0x3d2cf553	0.042226147
62	0xbe039a87	-0.12851916
63	0x3d3784fc	0.04480456
64	0xbe117114	-0.14203292
65	0xbd6ff6a7	-0.058584835
66	0xbdaf6098	-0.08563346
67	0xbda17fbe	-0.07885693
68	0x3e804771	0.25054505
69	0x3d87a837	0.06623881
70	0xbdee0509	-0.11622054
71	0xbe4e7d79	-0.20165052
72	0x3dec6656	0.115429565
73	0x3d07f622	0.033193715
74	0xbe186c5d	-0.14885087
75	0x3e90780e	0.28216594
76	0x3dd20bd4	0.10256162
77	0x3e2e6014	0.17028838
78	0xbe076692	-0.13222721
79	0xbf41ffdb	-0.7578103
80	0x3e84025b	0.25783047
81	0x3eb3d076	0.3511998
82	0x3e0c4ae2	0.1370044
83	0xbe599239	-0.21247186
84	0xbc394deb	-0.011310081
85	0x3ce7db3c	0.028302781
86	0xbd7e5296	-0.06209048
87	0x3e75a906	0.23990259
88	0x3e73ad9d	0.23796697
89	0xbdc5673f	-0.09638833
90	0x3e1d66b6	0.15371212
91	0xbbe91a84	-0.0071137566
92	0x3e53fdba	0.20702258
93	0x3cd6907c	0.026191942
94	0xbd2de104	-0.04245092
95	0xbde56e9e	-0.11202739
96	0x3c526945	0.012842481
97	0x3e21fd77	0.15819345
98	0x3df10bc0	0.11769819
99	0xbea75e10	-0.32688951
100	0x3e9a4159	0.3012798
101	0x3e6e485a	0.23269787
102	0xbced5c83	-0.028974777
103	0xbe12e608	-0.14345562
104	0xbdbfb64b	-0.093609415
105	0xbdd6121d	-0.104526736
106	0x3b6ff047	0.0036611722
107	0xbceebf34	-0.029143907
108	0xbd57feb5	-0.052733142
109	0xbda077a9	-0.07835323
110	0x3cc909ff	0.0245409
111	0x3d37e6ad	0.044897724
112	0x3dd09321	0.101843126
113	0x3dbb4df3	0.09145727
114	0x3da4efaa	0.08053525
115	0x3cf7419a	0.030182648
116	0xbe9d605c	-0.3073758
117	0x3d66d160	0.05635202
118	0x3e46720c	0.19379443
119	0x3e11d517	0.14241444
120	0x3d0b42f2	0.03399939
121	0x3dec9623	0.11552074
122	0xbc83b814	-0.016078986
123	0xbca9145f	-0.020639597
124	0x3d555e79	0.05209205
125	0xbbd2aadd	-0.00642906
126	0xbc9ed476	-0.019388419
127	0xbcdaef26	-0.026725363
128	0xbde44ab0	-0.11147058
129	0xbd0e9494	-0.034809664
130	0xbd71cd33	-0.059033584
131	0x3eae4ff2	0.34045368
132	0xbf013960	-0.5047817
133	0xbbbd887a	-0.0057840915
134	0xbf2c48ab	-0.6729838
135	0xbfd7d0c0	-1.686058
136	0xbb16cdab	-0.0023010771
137	0x3e0b0504	0.13576132
138	0xbd4e02db	-0.050295692
139	0x3e51294d	0.20425911
140	0x3ea61ccd	0.32443848
141	0x3de44f86	0.111479804
142	0x3d05910f	0.03260904
143	0x3e17447c	0.14772218
144	0x3cdd660c	0.027026199
145	0x3ba34d40	0.004983574
146	0x3d8c4c9f	0.06850552
147	0xbcc0696f	-0.023487775
148	0xbe4503b1	-0.1923969
149	0xbe7aa926	-0.24478588
150	0x3db93ff7	0.090454035
151	0xbe98f5b0	-0.29874945
152	0x3d8eec6f	0.0697869
153	0x3e1bd9c9	0.15219797
154	0xbe555a53	-0.20835237
155	0xbdd9f4a0	-0.10642362
156	0xba772050	-0.0009427117
157	0xbe4da146	-0.20081052
158	0x3e6bdebc	0.23034185
159	0xbd80e30d	-0.062933065
160	0xbe31a676	-0.17348656
161	0xbef89d8e	-0.48557705
162	0xbea9f1ac	-0.33192194
163	0xbdb0f188	-0.086398184
164	0xbe9449f3	-0.2896267
165	0x3cd0e2af	0.025498716
166	0x3cee24c9	0.029070275
167	0x3e465566	0.19368514
168	0xbe156ce1	-0.14592315
169	0xbd9d5b81	-0.076834686
170	0x3d7d9445	0.06190898
171	0x3dfbea27	0.123005204
172	0x3e549d27	0.20763074
173	0x3ce55db3	0.02799878
174	0x3d2e3c46	0.04253795
175	0xbc6fc429	-0.014634171
176	0x3d99c26b	0.075077854
177	0xbeb2127e	-0.34779733
178	0x3ddff758	0.10935849
179	0xbe01bf48	-0.12670624
180	0x3dfa64b1	0.122262366
181	0xbd918876	-0.07106106
182	0x3dee1d92	0.11626734
183	0xbcdb4781	-0.026767494
184	0xbca3ac62	-0.01997966
185	0xbcb9742f	-0.022638408
186	0xbd18441a	-0.03717432
187	0x3d97d789	0.07414157
188	0x3e285ec5	0.16442402
189	0x3b45e746	0.0030197664
190	0x3ed2f75d	0.41204348
191	0xbc111060	-0.008854002
192	0xbd822fb1	-0.06356753
193	0xbf4257e7	-0.7591538
194	0xbfd8fab1	-1.6951505
195	0x3cebf3af	0.02880272
196	0xbc106aea	-0.008814553
197	0x3cf1038b	0.029420635
198	0xbdb78168	-0.08960229
199	0x3d9ca417	0.07648485
200	0x3baf9276	0.0053580357
201	0x3e0475a7	0.12935506
202	0x3cfdee0c	0.030997299
203	0xbd61c72e	-0.055121593
204	0xbe4a4229	-0.197518
205	0x3e0e61f5	0.13904555
206	0x3e052646	0.13002881
207	0x3da534e8	0.08066732
208	0x3e1fe73e	0.15615556
209	0x3c1bc579	0.00950753
210	0x3da2731b	0.07932111
211	0xbd4f6a58	-0.050638527
212	0x3d8c5f97	0.0685417
213	0x3d93b626	0.072124764
214	0x3cf0d5c4	0.029398806
215	0x3e480a3f	0.19535159
216	0xbe041f1a	-0.1290249
217	0x3b65d6c2	0.0035070633
218	0xbd152f75	-0.03642221
219	0xbc762950	-0.015024498
220	0x3c83e8b5	0.016102174
221	0xbb82385d	-0.003974004
222	0xbe028cea	-0.12749067
223	0xbca1ca23	-0.019749707
224	0xbdc13e1b	-0.09435674
225	0x3c97076b	0.018436154
226	0x3cd06ed9	0.025443481
227	0xbdf07cec	-0.11742577
228	0xbe3af923	-0.182591
229	0xbd5256c8	-0.051352292
230	0x3dfc46d7	0.12318199
231	0x3f197000	0.59936523
232	0xbdf1fa6b	-0.118153416
233	0x3d10d03e	0.035354845
234	0x3d9e7ef7	0.0773906
235	0x3ce155de	0.027506765
236	0xbd96a34f	-0.073553674
237	0xbe408757	-0.18801628
238	0xbe2fd8ee	-0.17172596
239	0x3e357ad0	0.1772263
240	0x3d4ed2f9	0.050494168
241	0x3ed8da03	0.4235383
242	0xbe753d02	-0.23949054
243	0x3cf3cd05	0.029760847
244	0x3d8df5b4	0.0693163
245	0xbc71e840	-0.014764845
246	0x3e98e246	0.29860133
247	0xbeb2c2f2	-0.34914356
248	0xbdc1be53	-0.094601296
249	0x3da7f02d	0.08200107
250	0xbd189c80	-0.037258625
251	0x3dfc5ce0	0.12322402
252	0xbdff5f8e	-0.124693975
253	0xbc843f26	-0.016143393
254	0xb8b53d8a	-8.642215e-05
255	0xbc8569b7	-0.01628576

fc1.bias f4 [64]
0	0x3e11fdf6	0.14257035
1	0xbdcecfc2	-0.100982204
2	0xbe03fbe9	-0.12889065
3	0xbd24778d	-0.040153075
4	0x3e0fcf9f	0.14044045
5	0x3d536634	0.05161114
6	0xbe2b206d	-0.16711588
7	0xbbeb0c19	-0.007173073
8	0xbd87dc31	-0.06633795
9	0xbe174187	-0.1477109
10	0x3d9570e7	0.07296925
11	0x3e657dcf	0.22411273
12	0x3e7276e9	0.23678173
13	0x3c47caef	0.012194379
14	0x3bc34352	0.005958953
15	0x3ca0791a	0.019588996
16	0x3e2ac38c	0.16676158
17	0x3d47b6e9	0.04875842
18	0x3d30d81a	0.04317484
19	0xbe1e88f0	-0.15481925
20	0xbdf86b97	-0.12129896
21	0x3dfbf514	0.12302604
22	0xbc879ac4	-0.01655329
23	0xbdf58943	-0.11989071
24	0xbe23f3cc	-0.1601097
25	0x3d6bc092	0.057556696
26	0xbdab5c49	-0.08367211
27	0xbde0b238	-0.109714925
28	0x3e0052b9	0.12531556
29	0x3dd10737	0.10206454
30	0x3c658e0b	0.014010916
31	0xbe7a05a9	-0.24416222
32	0x3e0c53d7	0.13703857
33	0x3d0b29ca	0.0339754
34	0xbe00b093	-0.12567358
35	0xbd14601e	-0.036224477
36	0xbd53d8f1	-0.051720563
37	0x3dbbf444	0.09177449
38	0x3bfd6534	0.0077330116
39	0xbe016245	-0.12635143
40	0xbd889f66	-0.06671028
41	0x3d4eb916	0.05046948
42	0xbd94e518	-0.07270259
43	0x3dbfdd79	0.093684144
44	0x3d62f461	0.05540884
45	0xbd6c9207	-0.05775645
46	0x3d3fa071	0.04678387
47	0xbe57705d	-0.21038957
48	0xbe51cce7	-0.2048832
49	0x3bdeb3f1	0.006796353
50	0xbe40a57c	-0.18813127
51	0x3dc5aafa	0.09651752
52	0xbc212e1e	-0.009837655
53	0xbd8a85bc	-0.06763789
54	0xbe5924cb	-0.21205442
55	0x3de3159f	0.11088108
56	0x3e27a8de	0.16373011
57	0xbe19e9d8	-0.1503061
58	0xbde52bda	-0.11190005
59	0xbe00b750	-0.12569928
60	0x3e040cd8	0.12895525
61	0x3db22de2	0.08700158
62	0x3c886cd8	0.016653463
63	0xbce3e2b6	-0.027818065

fc2.weight f4 [64, 64]
0	0xbe130e18	-0.14360845
1	0x3e2748ac	0.16336316
2	0x3e976c6a	0.295749
3	0x3f018310	0.5059061
4	0xbe92e620	-0.28691196
5	0x3cdb64f0	0.02678153
6	0xbe449563	-0.19197612
7	0xbea97e71	-0.3310428
8	0x3e9b98c5	0.3038999
9	0xbe3589ab	-0.17728297
10	0xbe18f28a	-0.14936271
11	0x3d42d7eb	0.047569197
12	0xbeb1c5da	-0.3472126
13	0x3dae6234	0.085148245
14	0x3da4d160	0.080477476
15	0xbe97d85f	-0.29657266
16	0xbe84dc2a	-0.25949222
17	0x3d92a5dc	0.071605414
18	0xbe25f123	-0.16205268
19	0xbe8e523a	-0.2779711
20	0xbd30e015	-0.04318245
21	0xbea175e4	-0.31535256
22	0xbc22949c	-0.009923127
23	0xbd126a45	-0.035745878
24	0xbd6e187e	-0.058128826
25	0x3e79c850	0.2439282
26	0x3ceb4871	0.028721066
27	0x3e2d2076	0.16906914
28	0x3df6536d	0.12027631
29	0x3da13813	0.078720234
30	0x3e977799	0.29583433
31	0xbf155f56	-0.58348596
32	0x3d1fe1ca	0.03903369
33	0x3ea60afc	0.32430255
34	0xbdcf8c07	-0.1013413
35	0xbe09b36a	-0.13447347
36	0xbea74c46	-0.3267538
37	0x3e420987	0.18948947
38	0xbecbf0a5	-0.39832035
39	0x3e30a193	0.17249136
40	0xbe902e58	-0.28160357
41	0x3e708a3d	0.23490234
42	0x3f1a4341	0.6025887
43	0xbe02352c	-0.12715596
44	0x3da3c646	0.07996802
45	0xbf811a4b	-1.0086149
46	0xbe87ad54	-0.26499426
47	0x3da1db38	0.07903141
48	0xbeeba5e9	-0.46025017
49	0x3e34e481	0.17665292
50	0xbe78009d	-0.24218984
51	0x3d94c080	0.07263279
52	0x3dabe002	0.083923355
53	0x3e6ef5c1	0.23335935
54	0xbf0356f3	-0.5130455
55	0xbcc9d26e	-0.024636474
56	0x3e0ca76b	0.1373574
57	0xbefa1aef	-0.48848674
58	0xbde1496b	-0.110003315
59	0xbd9b3b06	-0.07579617
60	0xbd9ae79e	-0.07563709
61	0x3e5ddc79	0.21666135
62	0x3c243111	0.010021464
63	0x3e14e807	0.14541636
64	0x3e26a3d0	0.16273427
65	0x3d8e4157	0.06946056
66	0x3e0e55b9	0.13899888
67	0xbed3f9a0	-0.41401386
68	0x3deb24f9	0.11481661
69	0x3e3df805	0.18551643
70	0xbe72c59b	-0.23708193
71	0xbba0544d	-0.004892862
72	0x3c4b3cc9	0.012404629
73	0xbc7b6889	-0.015344747
74	0x3d754bb3	0.059886646
75	0x3ec72e58	0.38902545
76	0xbe987d37	-0.2978303
77	0x3d90502d	0.07046542
78	0x3ac623a3	0.0015116822
79	0xbe331939	-0.1749009
80	0x3d833816	0.06407182
81	0x3d96759d	0.07346652
82	0xbe59c6d5	-0.21267255
83	0x3d58449f	0.052799817
84	0xbdb69cb1	-0.08916605
85	0xbe43c3f4	-0.19117719
86	0x3ddbd0d4	0.1073319
87	0xbd4e2d03	-0.050335895
88	0xbdd88ca0	-0.10573697
89	0xbc466b01	-0.012110473
90	0xbe1d3e63	-0.1535583
91	0xbe5b193b	-0.21396343
92	0x3db92e4f	0.09042036
93	0xbd0dd431	-0.03462619
94	0xbe576dc5	-0.21037968
95	0x3f385dea	0.720183
96	0xbe3aeb66	-0.1825386
97	0x3deb92d2	0.11502613
98	0x3da7a19f	0.08185124
99	0x3e36cb3e	0.17850968
100	0xbd6288f9	-0.05530641
101	0x3bd8c7c6	0.0066156117
102	0x3e6f1a33	0.23349838
103	0x3c271fc8	0.010200448
104	0xbec063f8	-0.3757627
105	0xbf412f1f	-0.75462526
106	0x3d7b32ac	0.06132762
107	0xbe01958c	-0.12654704
108	0x3caa3a66	0.0207798
109	0xbd4a89ea	-0.04944793
110	0xbda22ab8	-0.07918304
111	0xbe4198d2	-0.18905953
112	0x3ca05989	0.019573944
113	0x3d124f09	0.035719905
114	0x3d50b4b2	0.050953574
115	0x3e4dd8e1	0.20102264
116	0x3e2fee11	0.17180659
117	0x3d9af0a7	0.07565432
118	0xbe5dca99	-0.21659316
119	0xbd402704	-0.04691221
120	0xbe54a5a2	-0.20766309
121	0x3cf8f701	0.030391218
122	0x3e13e0e3	0.14441256
123	0x3caa7fa2	0.020812813
124	0xbe4845a6	-0.19557819
125	0xbd5bf624	-0.053701535
126	0xbe8d1e3b	-0.27562127
127	0xbf08f301	-0.53495795
128	0xbe1a805c	-0.15088028
129	0xbe453664	-0.1925903
130	0xbe57853e	-0.21046922
131	0xbe004ccf	-0.125293
132	0xbe12a3d7	-0.14320312
133	0x3e4be679	0.19912137
134	0xbeb38300	-0.35060883
135	0x3dc7dbb6	0.097587034
136	0x3b43dfd8	0.002988806
137	0xbef8923b	-0.48549065
138	0xbdc7215a	-0.09723158
139	0xbe519c1d	-0.20469709
140	0x3d58b16f	0.05290359
141	0x3d3b2a49	0.045694623
142	0x3d0451e5	0.032304663
143	0x3d9036fc	0.070417374
144	0xbe1ddcaa	-0.15416208
145	0xbe4a2a94	-0.19742805
146	0xbe800eaf	-0.25011203
147	0xbe394c45	-0.18095501
148	0xbdfe8c40	-0.12429094
149	0xbc1f53b0	-0.0097245425
150	0xbde961bd	-0.11395595
151	0xbe760efb	-0.24029152
152	0xbecaa7ec	-0.3958124
153	0x39ee036d	0.0004539745
154	0x3dfef755	0.124495186
155	0xbc596272	-0.0132681
156	0xbe997e27	-0.2997906
157	0xbcc80e1c	-0.02442079
158	0x3d098bd9	0.033580635
159	0xbe33dcd0	-0.17564702
160	0xbeab6014	-0.3347174
161	0xbea2b065	-0.31775203
162	0xbea10f20	-0.31456852
163	0xbdc734d9	-0.09726877
164	0x3d97560e	0.073894605
165	0x3dc088d8	0.09401101
166	0xbdb684c5	-0.089120425
167	0xbe05fb4e	-0.13084146
168	0xbe160ff4	-0.14654523
169	0xbd9a4053	-0.075318
170	0xbe182f67	-0.14861833
171	0xbd4807a2	-0.048835404
172	0xbe82e5e1	-0.2556601
173	0xbe9582f3	-0.2920147
174	0xbe267d12	-0.16258648
175	0xbec7a906	-0.38996142
176	0x3e4b5a22	0.19858602
177	0xbda30f00	-0.079618454
178	0xbec1a6c4	-0.37822545
179	0x3e23ec5c	0.16008133
180	0xbe108386	-0.14112672
181	0xbdf7f24f	-0.121067636
182	0xbd4fbe6e	-0.050718717
183	0xbea6adf8	-0.32554603
184	0x3dbe054e	0.092783555
185	0xbd6e00fc	-0.058106408
186	0xbd0d7023	-0.03453077
187	0x3d63b6ac	0.05559413
188	0xbe6d28f6	-0.23160157
189	0xbe5076c4	-0.20357805
190	0x3e98e7af	0.2986426
191	0xbdbce7ac	-0.092238754
192	0x3d607c38	0.054805964
193	0x3b48e953	0.003065665
194	0xbda9ea19	-0.08296604
195	0xbea3ecb7	-0.32016537
196	0xbc0f06b7	-0.008729628
197	0xbdac744f	-0.084206216
198	0xbde472f4	-0.11154738
199	0x3db4f49f	0.0883572
200	0xbe9146de	-0.2837438
201	0xbeb3f5de	-0.3514852
202	0xbdc1195e	-0.094286665
203	0xbd8013d8	-0.06253785
204	0xbd2ff629	-0.042959366
205	0xbef89d47	-0.48557493
206	0x3f019374	0.5061562
207	0x3e4695b3	0.19393043
208	0xbe06c6da	-0.13161793
209	0xbf043c03	-0.5165407
210	0x3e0a7d8e	0.13524458
211	0x3dec1a8d	0.11528502
212	0x3d2869b0	0.041116416
213	0x3d81eb40	0.063436985
214	0x3e0ba9fe	0.13639066
215	0xba31ac17	-0.00067776575
216	0x3e0f4f57	0.1399511
217	0x3d944d92	0.07241358
218	0xbe101c83	-0.14073376
219	0x3b2c8232	0.002632272
220	0xbe681aac	-0.22666425
221	0xbf6175bb	-0.8807027
222	0x3eb71870	0.35760832
223	0xbd23088a	-0.039803065
224	0xbddbe80e	-0.1073762
225	0x3d42498c	0.04743342
226	0x3da2f855	0.07957522
227	0x3e131470	0.14363265
228	0xbd8f15d6	-0.06986587
229	0x3d985836	0.074387
230	0x3ee14f41	0.44005778
231	0xbc629dbf	-0.013831555
232	0xbeaafc3a	-0.3339556
233	0x3e953b2d	0.2914671
234	0x3dd89520	0.10575318
235	0x3c53a9cf	0.0129189035
236	0xbd3b4fcf	-0.04573041
237	0x3e42d496	0.19026408
238	0x3df71fd9	0.12066621
239	0x3c9b455a	0.018953968
240	0xbe0581c7	-0.13037787
241	0x3da7a466	0.081856534
242	0xbdb9e1a3	-0.0907624
243	0xbdf90c6b	-0.12160572
244	0x3d3dfc2e	0.046383075
245	0x3db39ed1	0.08770526
246	0xbeae2872	-0.34015232
247	0xbc15b48e	-0.009137286
248	0xbd26f6c1	-0.040762667
249	0xbebbf6e0	-0.36711788
250	0xbe0235a6	-0.12715778
251	0xbe71b323	-0.23603491
252	0xbd4f66ad	-0.05063503
253	0xbcabdb49	-0.020978587
254	0x3d64b61e	0.055837743
255	0x3e11c40c	0.14234942

fc2.bias f4 [64]
0	0xbd62a57b	-0.055333596
1	0x3c84e8dc	0.016224317
2	0x3d796af7	0.060893025
3	0xbd1dd9fd	-0.038537968
4	0x3e0076fd	0.1254539
5	0xbdefa17d	-0.11700723
6	0x3dd69260	0.104771376
7	0xbd682b4d	-0.05668192
8	0x3ed7670e	0.42070812
9	0x3f2de337	0.6792483
10	0xbe7a2765	-0.2442909
11	0x3e5c9627	0.21541654
12	0x3ed1a6d1	0.40947583
13	0xbde00a14	-0.10939422
14	0xbc5d45a2	-0.013505371
15	0x3c7a7ba7	0.01528827
16	0x3d49c18a	0.04925684
17	0xbe1b0f5e	-0.15142581
18	0xbcb1a1a5	-0.021683523
19	0x3e8ec7f0	0.27886915
20	0x3e9e3e40	0.30906868
21	0x3f3941d8	0.72366095
22	0xbe4d81d7	-0.20069061
23	0xbd5348c6	-0.051583074
24	0x3e15cac3	0.14628129
25	0xbd9152ca	-0.07095869
26	0x3c804318	0.015656993
27	0xbe7b8c30	-0.24565196
28	0xbdacdf57	-0.08441036
29	0x3e285ee4	0.16442448
30	0x3d91b383	0.07114317
31	0xbe6166be	-0.2201185
32	0x3ac56fb1	0.0015063194
33	0x3e467ba1	0.19383098
34	0x3dc7415c	0.09729263
35	0x3e0d4a31	0.13797833
36	0xbdad9ff4	-0.08477774
37	0xbdb83411	-0.08994306
38	0x3daa12b7	0.08304351
39	0x3cc11555	0.023569742
40	0xbe1d9d90	-0.15392137
41	0x3f2b6745	0.6695445
42	0x3f20e3a6	0.62847364
43	0xbda9e646	-0.08295874
44	0x3ce1e19e	0.027573403
45	0xbc08e77b	-0.0083559705
46	0x3e76e53c	0.24110883
47	0xbc94e646	-0.01817621
48	0x3dc0a062	0.094055906
49	0xbe7db806	-0.2477723
50	0xbe1c933d	-0.15290542
51	0x3ec05836	0.375673
52	0xbe08092a	-0.13284746
53	0xbd679446	-0.05653789
54	0x3e3373bb	0.17524616
55	0x3e825c8b	0.2546123
56	0xbe28f804	-0.1650086
57	0xbdc780da	-0.09741373
58	0x3c13e519	0.009026789
59	0xbdf8c911	-0.121477254
60	0xbe11134d	-0.14167519
61	0x3e44e587	0.19228183
62	0x3d1068fc	0.03525637
63	0xbe352014	-0.17688018

fc3.weight f4 [4, 64]
0	0xbe83c1c8	-0.2573378
1	0x3dcf1493	0.10111346
2	0xbe03cdb9	-0.12871446
3	0xbd7068a9	-0.05869356
4	0x3ef84d90	0.48496675
5	0x3ef1066a	0.47075206
6	0x3e6a5f63	0.2288795
7	0xbec18f5e	-0.37804693
8	0x3e6a0d31	0.22856595
9	0x3e5c8358	0.21534479
10	0xbdcfcce5	-0.101465024
11	0x3dbad5cd	0.091228105
12	0x3e6a531c	0.22883266
13	0xbea4e059	-0.32202414
14	0xbd9f34d3	-0.07773747
15	0xbd75d544	-0.06001784
16	0x3d768baf	0.060191806
17	0x3ce5c71a	0.02804904
18	0xbe953aab	-0.29146323
19	0x3e64f33b	0.2235841
20	0x3d65250f	0.055943545
21	0x3e7e35dc	0.24825233
22	0xbca0721c	-0.019585662
23	0xbd107f92	-0.03527791
24	0x3db431d2	0.08798565
25	0xbe675e34	-0.2259453
26	0xbdf51d92	-0.11968531
27	0xbe92438e	-0.28567165
28	0xbec169ca	-0.37776023
29	0x3b94a57f	0.0045363302
30	0xbeb07cd5	-0.3447024
31	0x3eb3e0fe	0.35132593
32	0x3ef06aca	0.46956474
33	0x3e72eb1c	0.237225
34	0x3d1b2acb	0.037882607
35	0x3d7436cf	0.059622582
36	0x3ef3d690	0.47624636
37	0x3db66e90	0.08907807
38	0xbe7a1c49	-0.24424852
39	0x3e1f5da6	0.15563068
40	0xbe378175	-0.17920478
41	0x3e58dd68	0.2117821
42	0x3e3e1b5b	0.18565123
43	0x3df75d94	0.120783955
44	0x3ebca0fe	0.36841577
45	0x3dbbc97c	0.091692895
46	0x3e581154	0.2110036
47	0x3f02835e	0.509817
48	0xbc7fee41	-0.015620769
49	0xbe05d80d	-0.13070698
50	0xbd4f613b	-0.050629836
51	0x3ef79d31	0.48362115
52	0xbe3de9e5	-0.18546255
53	0xbebf71cb	-0.37391505
54	0x3d18e462	0.037327178
55	0x3e7f6286	0.24939927
56	0xbe657190	-0.22406602
57	0x3d9c4ac5	0.07631449
58	0x3dd65ee7	0.1046732
59	0x3e59d2b1	0.21271779
60	0xbec1a9d2	-0.37824875
61	0x3ec1335f	0.37734506
62	0xbd113058	-0.035446495
63	0xbd4ca8b7	-0.049965587
64	0xbe613f12	-0.21996716
65	0x3d653d1e	0.05596649
66	0x3edf0f82	0.4356652
67	0x3e459685	0.192957
68	0x3f0cf314	0.5505841
69	0x3eb4b170	0.35291624
70	0x3e80789d	0.2509202
71	0xbdbb825b	-0.09155723
72	0x3e7716f3	0.24129848
73	0x3e56db95	0.20982201
74	0xbdc57209	-0.09640891
75	0x3d92948b	0.071572386
76	0x3e927379	0.28603724
77	0xbd90d13a	-0.07071157
78	0xbd9e8a0b	-0.07741173
79	0x3dfa393a	0.12217946
80	0x3e09d464	0.13459927
81	0x3e1d466d	0.15358897
82	0xbeb628f9	-0.35578135
83	0x3e56ea8f	0.20987915
84	0x3e1fab18	0.15592611
85	0x3e84574a	0.25847846
86	0xbe194c33	-0.14970474
87	0x3ec6cbea	0.3882745
88	0x3e05645a	0.13026562
89	0xbc190b9f	-0.00934115
90	0xbe695781	-0.22787286
91	0xbea5f04d	-0.32409897
92	0x3e946c17	0.28988716
93	0x3da79511	0.08182729
94	0x3cae0d5b	0.021246603
95	0x3e93ae7b	0.28844056
96	0x3e8118ec	0.25214326
97	0x3e6e4b72	0.23270968
98	0x3e1c1d3d	0.15245529
99	0x3e51d125	0.20489939
100	0x3edfd568	0.43717504
101	0x3e92a45c	0.2864102
102	0x3ce0ebc2	0.027456168
103	0x3e8d100f	0.27551314
104	0xbe797de7	-0.24364434
105	0x3e46b3b7	0.19404493
106	0x3e2bd0c4	0.16778857
107	0x3e3c6d2f	0.18401025
108	0x3e9b4c90	0.3033185
109	0xbe8808d1	-0.26569226
110	0x3e188c91	0.14897372
111	0x3ec9c7a2	0.3941012
112	0x3dbfc70d	0.09364138
113	0xbe3b02b0	-0.18262744
114	0xbd272bc5	-0.040813226
115	0x3eb86545	0.36014763
116	0xbe55c613	-0.2087634
117	0xbe70de4e	-0.23522303
118	0x3dd33bbb	0.10314127
119	0x3e58513a	0.21124735
120	0xbe12cef1	-0.14336754
121	0x3e140e2f	0.14458536
122	0xbe367661	-0.17818595
123	0xbce5adcf	-0.02803698
124	0xbea3ab5b	-0.3196667
125	0x3eecc53f	0.46244237
126	0xbeb3d228	-0.35121274
127	0xbd953203	-0.072849296
128	0xbeb4b21b	-0.35292134
129	0x3e72a4d1	0.23695685
130	0x3d549f6f	0.05190986
131	0x3e96c7b8	0.29449248
132	0x3eeb046c	0.4590181
133	0x3ee9f25a	0.45692712
134	0x3e44369f	0.19161461
135	0xbd09e65b	-0.03366695
136	0x3e461de0	0.19347334
137	0x3e3b6731	0.18301083
138	0xbe2a7b7f	-0.16648673
139	0x3e88eeb9	0.2674463
140	0x3e8d19c0	0.27558708
141	0x3e60e8ce	0.21963808
142	0x3eea1286	0.45717257
143	0x3e53af1b	0.20672266
144	0x3ebffbe6	0.3749687
145	0x3e04467e	0.12917516
146	0xbecf6a07	-0.4051058
147	0x3e19a03e	0.15002534
148	0x3df24adb	0.11830684
149	0x3e7b9744	0.24569422
150	0xbe65209a	-0.22375718
151	0xbda24b86	-0.07924561
152	0x3e9034e4	0.28165352
153	0xbde8cacb	-0.11366805
154	0xbeb3fdf3	-0.35154685
155	0xbec394e5	-0.38199535
156	0x3c80b327	0.015710426
157	0x3e960c80	0.29306412
158	0xbea0e43a	-0.31424123
159	0xbec60269	-0.38673714
160	0xbdbe2275	-0.09283916
161	0xbbf9865c	-0.007614894
162	0x3eab57d2	0.3346544
163	0x3e801d30	0.25022268
164	0xbd7601c2	-0.06006027
165	0x3e3e3ee8	0.18578684
166	0x3e89418e	0.26807827
167	0x3dfe6395	0.124213375
168	0x3e145eb7	0.14489256
169	0x3e6714c3	0.22566514
170	0x3e74f82c	0.23922795
171	0xbea1ba54	-0.3158747
172	0x3e5517b1	0.20809819
173	0xbdd84c69	-0.10561449
174	0x3e43734b	0.1908695
175	0x3e824804	0.2544557
176	0x3e8937cb	0.2680038
177	0x3e184939	0.14871682
178	0x3e915844	0.28387654
179	0x3ea535f0	0.32267714
180	0xbdc8e362	-0.09808995
181	0xbe7b6e9e	-0.24553916
182	0x3d42b1c8	0.047532827
183	0x3e735b2a	0.23765245
184	0xbe26c2db	-0.16285269
185	0xbf3df526	-0.7420219
186	0x3da7eca5	0.08199433
187	0x3ef4ab6b	0.47787032
188	0xbd79ee0a	-0.061018027
189	0x3de8c85e	0.11366342
190	0xbf137ab9	-0.57609135
191	0xbea22944	-0.31672108
192	0x3e20f660	0.15718985
193	0x3ebc55b5	0.3678414
194	0x3e645e8c	0.22301692
195	0xbe9ba1c0	-0.30396843
196	0x3e6bd80a	0.23031631
197	0x3ea07f33	0.31347045
198	0xbdbb5309	-0.09146697
199	0xbdd62321	-0.10455919
200	0x3dad50ee	0.08462702
201	0x3e6d0d78	0.23149669
202	0xbd42f918	-0.047600836
203	0x3e17bd4a	0.14818302
204	0x3eb99ed0	0.36253977
205	0x3d4ec7d4	0.05048354
206	0x3ebe1307	0.37123892
207	0xbd3b89bb	-0.045785647
208	0x3ea03b52	0.31295258
209	0x3de7f9e4	0.1132696
210	0x3d434d63	0.047681224
211	0x3e6177fc	0.22018427
212	0x3d810e05	0.06301502
213	0x3e90cc31	0.28280786
214	0xbe3d8028	-0.18505919
215	0x3f7466f5	0.954696
216	0x3dfc41bf	0.123172276
217	0xbed97ccb	-0.42478022
218	0x3d8c2b37	0.0684418
219	0x3cbd7f31	0.023131939
220	0x3ed0cdff	0.40782163
221	0x3d113298	0.03544864
222	0xbea6d68e	-0.32585567
223	0xbe5a1db5	-0.21300395
224	0x3ef1b20b	0.47206149
225	0x3e3767c9	0.17910685
226	0x3e0910d7	0.1338533
227	0x3e26ecba	0.16301242
228	0x3eaa6d8d	0.33286706
229	0x3eff4c21	0.4986277
230	0x3e9afe2b	0.3027204
231	0x3e4379da	0.19089451
232	0xbec910ac	-0.39270532
233	0x3e7cdcaf	0.24693559
234	0x3e581864	0.21103054
235	0xbeeaba92	-0.45845467
236	0x3e95b78c	0.29241598
237	0xbdcfd830	-0.10148656
238	0x3de7e1d6	0.11322372
239	0x3ee0df1f	0.43920228
240	0x3e046ce4	0.12932163
241	0xbc77101a	-0.0150795225
242	0x3f0d6766	0.552359
243	0x3e6b2595	0.22963555
244	0x3e978902	0.29596716
245	0xbe881fb9	-0.26586702
246	0x3e1dca90	0.15409303
247	0x3ea4f0b4	0.32214892
248	0xbdc48acb	-0.09596785
249	0xbe72f538	-0.23726356
250	0xbde28233	-0.1105999
251	0x3dc3ddf6	0.0956382
252	0xbe115d17	-0.14195667
253	0x3ddb3bac	0.10704741
254	0xbf1b962d	-0.60776025
255	0xbe20fcf7	-0.15721498

fc3.bias f4 [4]
0	0x3ef07e70	0.46971464
1	0x3ea44085	0.32080474
2	0x3eaad0e5	0.333625
3	0x3ea2242b	0.3166822
